<?xml version="1.0"?>
<net name="TensorFlow_Lite_Frontend_IR" version="11">
	<layers>
		<layer id="0" name="serving_default_input:0" type="Parameter" version="opset1">
			<data shape="1,?,?,3" element_type="u8" />
			<output>
				<port id="0" precision="U8" names="serving_default_input:0">
					<dim>1</dim>
					<dim>-1</dim>
					<dim>-1</dim>
					<dim>3</dim>
				</port>
			</output>
		</layer>
		<layer id="1" name="Convert_28746" type="Convert" version="opset1">
			<data destination_type="f32" />
			<input>
				<port id="0" precision="U8">
					<dim>1</dim>
					<dim>-1</dim>
					<dim>-1</dim>
					<dim>3</dim>
				</port>
			</input>
			<output>
				<port id="1" precision="FP32">
					<dim>1</dim>
					<dim>-1</dim>
					<dim>-1</dim>
					<dim>3</dim>
				</port>
			</output>
		</layer>
		<layer id="2" name="Constant_22085" type="Const" version="opset1">
			<data element_type="i64" shape="4" offset="0" size="32" />
			<output>
				<port id="0" precision="I64">
					<dim>4</dim>
				</port>
			</output>
		</layer>
		<layer id="3" name="Transpose_22082" type="Transpose" version="opset1">
			<input>
				<port id="0" precision="FP32">
					<dim>1</dim>
					<dim>-1</dim>
					<dim>-1</dim>
					<dim>3</dim>
				</port>
				<port id="1" precision="I64">
					<dim>4</dim>
				</port>
			</input>
			<output>
				<port id="2" precision="FP32" names="Cast">
					<dim>1</dim>
					<dim>3</dim>
					<dim>-1</dim>
					<dim>-1</dim>
				</port>
			</output>
		</layer>
		<layer id="4" name="Transpose_22088" type="Const" version="opset1">
			<data element_type="f16" shape="1, 3, 1, 1" offset="32" size="6" />
			<output>
				<port id="0" precision="FP16">
					<dim>1</dim>
					<dim>3</dim>
					<dim>1</dim>
					<dim>1</dim>
				</port>
			</output>
		</layer>
		<layer id="5" name="Transpose_22084" type="Convert" version="opset1">
			<data destination_type="f32" />
			<input>
				<port id="0" precision="FP16">
					<dim>1</dim>
					<dim>3</dim>
					<dim>1</dim>
					<dim>1</dim>
				</port>
			</input>
			<output>
				<port id="1" precision="FP32" names="Reshape_dequantize">
					<dim>1</dim>
					<dim>3</dim>
					<dim>1</dim>
					<dim>1</dim>
				</port>
			</output>
		</layer>
		<layer id="6" name="Transpose_22076" type="Subtract" version="opset1">
			<data auto_broadcast="numpy" />
			<input>
				<port id="0" precision="FP32">
					<dim>1</dim>
					<dim>3</dim>
					<dim>-1</dim>
					<dim>-1</dim>
				</port>
				<port id="1" precision="FP32">
					<dim>1</dim>
					<dim>3</dim>
					<dim>1</dim>
					<dim>1</dim>
				</port>
			</input>
			<output>
				<port id="2" precision="FP32" names="sub">
					<dim>1</dim>
					<dim>3</dim>
					<dim>-1</dim>
					<dim>-1</dim>
				</port>
			</output>
		</layer>
		<layer id="7" name="truediv_1;truediv_1/y" type="Const" version="opset1">
			<data element_type="f16" shape="" offset="38" size="2" />
			<output>
				<port id="0" precision="FP16" names="truediv_1;truediv_1/y" />
			</output>
		</layer>
		<layer id="8" name="5" type="Convert" version="opset1">
			<data destination_type="f32" />
			<input>
				<port id="0" precision="FP16" />
			</input>
			<output>
				<port id="1" precision="FP32" names="truediv_1;truediv_1/y_dequantize" />
			</output>
		</layer>
		<layer id="9" name="Constant_22077" type="Const" version="opset1">
			<data element_type="i64" shape="4" offset="40" size="32" />
			<output>
				<port id="0" precision="I64">
					<dim>4</dim>
				</port>
			</output>
		</layer>
		<layer id="10" name="Unsqueeze_22078" type="Unsqueeze" version="opset1">
			<input>
				<port id="0" precision="FP32" />
				<port id="1" precision="I64">
					<dim>4</dim>
				</port>
			</input>
			<output>
				<port id="2" precision="FP32">
					<dim>1</dim>
					<dim>1</dim>
					<dim>1</dim>
					<dim>1</dim>
				</port>
			</output>
		</layer>
		<layer id="11" name="Transpose_22070" type="Multiply" version="opset1">
			<data auto_broadcast="numpy" />
			<input>
				<port id="0" precision="FP32">
					<dim>1</dim>
					<dim>3</dim>
					<dim>-1</dim>
					<dim>-1</dim>
				</port>
				<port id="1" precision="FP32">
					<dim>1</dim>
					<dim>1</dim>
					<dim>1</dim>
					<dim>1</dim>
				</port>
			</input>
			<output>
				<port id="2" precision="FP32" names="truediv_1;truediv_1/y1">
					<dim>1</dim>
					<dim>3</dim>
					<dim>-1</dim>
					<dim>-1</dim>
				</port>
			</output>
		</layer>
		<layer id="12" name="Equal_1/y" type="Const" version="opset1">
			<data element_type="f16" shape="" offset="72" size="2" />
			<output>
				<port id="0" precision="FP16" names="Equal_1/y" />
			</output>
		</layer>
		<layer id="13" name="7" type="Convert" version="opset1">
			<data destination_type="f32" />
			<input>
				<port id="0" precision="FP16" />
			</input>
			<output>
				<port id="1" precision="FP32" names="Equal_1/y_dequantize" />
			</output>
		</layer>
		<layer id="14" name="Constant_22071" type="Const" version="opset1">
			<data element_type="i64" shape="4" offset="40" size="32" />
			<output>
				<port id="0" precision="I64">
					<dim>4</dim>
				</port>
			</output>
		</layer>
		<layer id="15" name="Unsqueeze_22072" type="Unsqueeze" version="opset1">
			<input>
				<port id="0" precision="FP32" />
				<port id="1" precision="I64">
					<dim>4</dim>
				</port>
			</input>
			<output>
				<port id="2" precision="FP32">
					<dim>1</dim>
					<dim>1</dim>
					<dim>1</dim>
					<dim>1</dim>
				</port>
			</output>
		</layer>
		<layer id="16" name="Transpose_15319" type="Subtract" version="opset1">
			<data auto_broadcast="numpy" />
			<input>
				<port id="0" precision="FP32">
					<dim>1</dim>
					<dim>3</dim>
					<dim>-1</dim>
					<dim>-1</dim>
				</port>
				<port id="1" precision="FP32">
					<dim>1</dim>
					<dim>1</dim>
					<dim>1</dim>
					<dim>1</dim>
				</port>
			</input>
			<output>
				<port id="2" precision="FP32" names="sub_1">
					<dim>1</dim>
					<dim>3</dim>
					<dim>-1</dim>
					<dim>-1</dim>
				</port>
			</output>
		</layer>
		<layer id="17" name="Transpose_22090" type="Const" version="opset1">
			<data element_type="f16" shape="48, 3, 3, 3" offset="74" size="2592" />
			<output>
				<port id="0" precision="FP16">
					<dim>48</dim>
					<dim>3</dim>
					<dim>3</dim>
					<dim>3</dim>
				</port>
			</output>
		</layer>
		<layer id="18" name="Transpose_15321" type="Convert" version="opset1">
			<data destination_type="f32" />
			<input>
				<port id="0" precision="FP16">
					<dim>48</dim>
					<dim>3</dim>
					<dim>3</dim>
					<dim>3</dim>
				</port>
			</input>
			<output>
				<port id="1" precision="FP32" names="center_net_mobile_net_v2fpn_feature_extractor/model_1/model/Conv1/Conv2D_dequantize">
					<dim>48</dim>
					<dim>3</dim>
					<dim>3</dim>
					<dim>3</dim>
				</port>
			</output>
		</layer>
		<layer id="19" name="Convolution_15322" type="Convolution" version="opset1">
			<data strides="2, 2" dilations="1, 1" pads_begin="0, 0" pads_end="0, 0" auto_pad="same_upper" />
			<input>
				<port id="0" precision="FP32">
					<dim>1</dim>
					<dim>3</dim>
					<dim>-1</dim>
					<dim>-1</dim>
				</port>
				<port id="1" precision="FP32">
					<dim>48</dim>
					<dim>3</dim>
					<dim>3</dim>
					<dim>3</dim>
				</port>
			</input>
			<output>
				<port id="2" precision="FP32">
					<dim>1</dim>
					<dim>48</dim>
					<dim>-1</dim>
					<dim>-1</dim>
				</port>
			</output>
		</layer>
		<layer id="20" name="Transpose_22096" type="Const" version="opset1">
			<data element_type="f16" shape="48" offset="2666" size="96" />
			<output>
				<port id="0" precision="FP16">
					<dim>48</dim>
				</port>
			</output>
		</layer>
		<layer id="21" name="Transpose_22093" type="Convert" version="opset1">
			<data destination_type="f32" />
			<input>
				<port id="0" precision="FP16">
					<dim>48</dim>
				</port>
			</input>
			<output>
				<port id="1" precision="FP32" names="center_net_mobile_net_v2fpn_feature_extractor/model_1/model/bn_Conv1/FusedBatchNormV3_dequantize">
					<dim>48</dim>
				</port>
			</output>
		</layer>
		<layer id="22" name="Constant_22094" type="Const" version="opset1">
			<data element_type="i64" shape="3" offset="2762" size="24" />
			<output>
				<port id="0" precision="I64">
					<dim>3</dim>
				</port>
			</output>
		</layer>
		<layer id="23" name="Transpose_19254" type="Unsqueeze" version="opset1">
			<input>
				<port id="0" precision="FP32">
					<dim>48</dim>
				</port>
				<port id="1" precision="I64">
					<dim>3</dim>
				</port>
			</input>
			<output>
				<port id="2" precision="FP32">
					<dim>1</dim>
					<dim>48</dim>
					<dim>1</dim>
					<dim>1</dim>
				</port>
			</output>
		</layer>
		<layer id="24" name="Transpose_19256" type="Add" version="opset1">
			<data auto_broadcast="numpy" />
			<input>
				<port id="0" precision="FP32">
					<dim>1</dim>
					<dim>48</dim>
					<dim>-1</dim>
					<dim>-1</dim>
				</port>
				<port id="1" precision="FP32">
					<dim>1</dim>
					<dim>48</dim>
					<dim>1</dim>
					<dim>1</dim>
				</port>
			</input>
			<output>
				<port id="2" precision="FP32">
					<dim>1</dim>
					<dim>48</dim>
					<dim>-1</dim>
					<dim>-1</dim>
				</port>
			</output>
		</layer>
		<layer id="25" name="Transpose_19258" type="Clamp" version="opset1">
			<data min="0" max="6" />
			<input>
				<port id="0" precision="FP32">
					<dim>1</dim>
					<dim>48</dim>
					<dim>-1</dim>
					<dim>-1</dim>
				</port>
			</input>
			<output>
				<port id="1" precision="FP32">
					<dim>1</dim>
					<dim>48</dim>
					<dim>-1</dim>
					<dim>-1</dim>
				</port>
			</output>
		</layer>
		<layer id="26" name="center_net_mobile_net_v2fpn_feature_extractor/model_1/model/expanded_conv_depthwise_BN/FusedBatchNormV3;center_net_mobile_net_v2fpn_feature_extractor/model_1/model/expanded_conv_depthwise/depthwise;center_net_mobile_net_v2fpn_feature_extractor/model_1/model/block_5_project/Conv2D" type="Const" version="opset1">
			<data element_type="f16" shape="1, 3, 3, 48" offset="2786" size="864" />
			<output>
				<port id="0" precision="FP16" names="center_net_mobile_net_v2fpn_feature_extractor/model_1/model/expanded_conv_depthwise_BN/FusedBatchNormV3;center_net_mobile_net_v2fpn_feature_extractor/model_1/model/expanded_conv_depthwise/depthwise;center_net_mobile_net_v2fpn_feature_extractor/model_1/model/block_5_project/Conv2D">
					<dim>1</dim>
					<dim>3</dim>
					<dim>3</dim>
					<dim>48</dim>
				</port>
			</output>
		</layer>
		<layer id="27" name="12" type="Convert" version="opset1">
			<data destination_type="f32" />
			<input>
				<port id="0" precision="FP16">
					<dim>1</dim>
					<dim>3</dim>
					<dim>3</dim>
					<dim>48</dim>
				</port>
			</input>
			<output>
				<port id="1" precision="FP32" names="center_net_mobile_net_v2fpn_feature_extractor/model_1/model/expanded_conv_depthwise_BN/FusedBatchNormV3;center_net_mobile_net_v2fpn_feature_extractor/model_1/model/expanded_conv_depthwise/depthwise;center_net_mobile_net_v2fpn_feature_extractor/model_1/model/block_5_project/Conv2D_dequantize">
					<dim>1</dim>
					<dim>3</dim>
					<dim>3</dim>
					<dim>48</dim>
				</port>
			</output>
		</layer>
		<layer id="28" name="Constant_28977" type="Const" version="opset1">
			<data element_type="i64" shape="4" offset="3650" size="32" />
			<rt_info>
				<attribute name="precise" version="0" />
			</rt_info>
			<output>
				<port id="0" precision="I64">
					<dim>4</dim>
				</port>
			</output>
		</layer>
		<layer id="29" name="Transpose_15330" type="Reshape" version="opset1">
			<data special_zero="true" />
			<input>
				<port id="0" precision="FP32">
					<dim>1</dim>
					<dim>3</dim>
					<dim>3</dim>
					<dim>48</dim>
				</port>
				<port id="1" precision="I64">
					<dim>4</dim>
				</port>
			</input>
			<output>
				<port id="2" precision="FP32">
					<dim>3</dim>
					<dim>3</dim>
					<dim>48</dim>
					<dim>1</dim>
				</port>
			</output>
		</layer>
		<layer id="30" name="Constant_15331" type="Const" version="opset1">
			<data element_type="i64" shape="4" offset="3682" size="32" />
			<rt_info>
				<attribute name="precise" version="0" />
			</rt_info>
			<output>
				<port id="0" precision="I64">
					<dim>4</dim>
				</port>
			</output>
		</layer>
		<layer id="31" name="Reshape_15332" type="Reshape" version="opset1">
			<data special_zero="true" />
			<input>
				<port id="0" precision="FP32">
					<dim>3</dim>
					<dim>3</dim>
					<dim>48</dim>
					<dim>1</dim>
				</port>
				<port id="1" precision="I64">
					<dim>4</dim>
				</port>
			</input>
			<output>
				<port id="2" precision="FP32">
					<dim>3</dim>
					<dim>3</dim>
					<dim>48</dim>
					<dim>1</dim>
				</port>
			</output>
		</layer>
		<layer id="32" name="Constant_15337" type="Const" version="opset1">
			<data element_type="i64" shape="1" offset="3714" size="8" />
			<output>
				<port id="0" precision="I64">
					<dim>1</dim>
				</port>
			</output>
		</layer>
		<layer id="33" name="Transpose_19261" type="Unsqueeze" version="opset1">
			<input>
				<port id="0" precision="FP32">
					<dim>3</dim>
					<dim>3</dim>
					<dim>48</dim>
					<dim>1</dim>
				</port>
				<port id="1" precision="I64">
					<dim>1</dim>
				</port>
			</input>
			<output>
				<port id="2" precision="FP32">
					<dim>3</dim>
					<dim>3</dim>
					<dim>48</dim>
					<dim>1</dim>
					<dim>1</dim>
				</port>
			</output>
		</layer>
		<layer id="34" name="Constant_19262" type="Const" version="opset1">
			<data element_type="i64" shape="5" offset="3722" size="40" />
			<output>
				<port id="0" precision="I64">
					<dim>5</dim>
				</port>
			</output>
		</layer>
		<layer id="35" name="Transpose_15340" type="Transpose" version="opset1">
			<input>
				<port id="0" precision="FP32">
					<dim>3</dim>
					<dim>3</dim>
					<dim>48</dim>
					<dim>1</dim>
					<dim>1</dim>
				</port>
				<port id="1" precision="I64">
					<dim>5</dim>
				</port>
			</input>
			<output>
				<port id="2" precision="FP32">
					<dim>48</dim>
					<dim>1</dim>
					<dim>1</dim>
					<dim>3</dim>
					<dim>3</dim>
				</port>
			</output>
		</layer>
		<layer id="36" name="GroupConvolution_15341" type="GroupConvolution" version="opset1">
			<data strides="1, 1" pads_begin="0, 0" pads_end="0, 0" dilations="1, 1" auto_pad="same_upper" />
			<input>
				<port id="0" precision="FP32">
					<dim>1</dim>
					<dim>48</dim>
					<dim>-1</dim>
					<dim>-1</dim>
				</port>
				<port id="1" precision="FP32">
					<dim>48</dim>
					<dim>1</dim>
					<dim>1</dim>
					<dim>3</dim>
					<dim>3</dim>
				</port>
			</input>
			<output>
				<port id="2" precision="FP32">
					<dim>1</dim>
					<dim>48</dim>
					<dim>-1</dim>
					<dim>-1</dim>
				</port>
			</output>
		</layer>
		<layer id="37" name="Transpose_22102" type="Const" version="opset1">
			<data element_type="f16" shape="48" offset="3762" size="96" />
			<output>
				<port id="0" precision="FP16">
					<dim>48</dim>
				</port>
			</output>
		</layer>
		<layer id="38" name="Transpose_22099" type="Convert" version="opset1">
			<data destination_type="f32" />
			<input>
				<port id="0" precision="FP16">
					<dim>48</dim>
				</port>
			</input>
			<output>
				<port id="1" precision="FP32" names="center_net_mobile_net_v2fpn_feature_extractor/model_1/model/expanded_conv_depthwise_BN/FusedBatchNormV3_dequantize">
					<dim>48</dim>
				</port>
			</output>
		</layer>
		<layer id="39" name="Constant_22100" type="Const" version="opset1">
			<data element_type="i64" shape="3" offset="2762" size="24" />
			<output>
				<port id="0" precision="I64">
					<dim>3</dim>
				</port>
			</output>
		</layer>
		<layer id="40" name="Transpose_19267" type="Unsqueeze" version="opset1">
			<input>
				<port id="0" precision="FP32">
					<dim>48</dim>
				</port>
				<port id="1" precision="I64">
					<dim>3</dim>
				</port>
			</input>
			<output>
				<port id="2" precision="FP32">
					<dim>1</dim>
					<dim>48</dim>
					<dim>1</dim>
					<dim>1</dim>
				</port>
			</output>
		</layer>
		<layer id="41" name="Transpose_19269" type="Add" version="opset1">
			<data auto_broadcast="numpy" />
			<input>
				<port id="0" precision="FP32">
					<dim>1</dim>
					<dim>48</dim>
					<dim>-1</dim>
					<dim>-1</dim>
				</port>
				<port id="1" precision="FP32">
					<dim>1</dim>
					<dim>48</dim>
					<dim>1</dim>
					<dim>1</dim>
				</port>
			</input>
			<output>
				<port id="2" precision="FP32">
					<dim>1</dim>
					<dim>48</dim>
					<dim>-1</dim>
					<dim>-1</dim>
				</port>
			</output>
		</layer>
		<layer id="42" name="Transpose_19271" type="Clamp" version="opset1">
			<data min="0" max="6" />
			<input>
				<port id="0" precision="FP32">
					<dim>1</dim>
					<dim>48</dim>
					<dim>-1</dim>
					<dim>-1</dim>
				</port>
			</input>
			<output>
				<port id="1" precision="FP32">
					<dim>1</dim>
					<dim>48</dim>
					<dim>-1</dim>
					<dim>-1</dim>
				</port>
			</output>
		</layer>
		<layer id="43" name="Transpose_22104" type="Const" version="opset1">
			<data element_type="f16" shape="24, 48, 1, 1" offset="3858" size="2304" />
			<output>
				<port id="0" precision="FP16">
					<dim>24</dim>
					<dim>48</dim>
					<dim>1</dim>
					<dim>1</dim>
				</port>
			</output>
		</layer>
		<layer id="44" name="Transpose_15353" type="Convert" version="opset1">
			<data destination_type="f32" />
			<input>
				<port id="0" precision="FP16">
					<dim>24</dim>
					<dim>48</dim>
					<dim>1</dim>
					<dim>1</dim>
				</port>
			</input>
			<output>
				<port id="1" precision="FP32" names="center_net_mobile_net_v2fpn_feature_extractor/model_1/model/expanded_conv_project/Conv2D_dequantize">
					<dim>24</dim>
					<dim>48</dim>
					<dim>1</dim>
					<dim>1</dim>
				</port>
			</output>
		</layer>
		<layer id="45" name="Convolution_15354" type="Convolution" version="opset1">
			<data strides="1, 1" dilations="1, 1" pads_begin="0, 0" pads_end="0, 0" auto_pad="same_upper" />
			<input>
				<port id="0" precision="FP32">
					<dim>1</dim>
					<dim>48</dim>
					<dim>-1</dim>
					<dim>-1</dim>
				</port>
				<port id="1" precision="FP32">
					<dim>24</dim>
					<dim>48</dim>
					<dim>1</dim>
					<dim>1</dim>
				</port>
			</input>
			<output>
				<port id="2" precision="FP32">
					<dim>1</dim>
					<dim>24</dim>
					<dim>-1</dim>
					<dim>-1</dim>
				</port>
			</output>
		</layer>
		<layer id="46" name="Transpose_22110" type="Const" version="opset1">
			<data element_type="f16" shape="24" offset="6162" size="48" />
			<output>
				<port id="0" precision="FP16">
					<dim>24</dim>
				</port>
			</output>
		</layer>
		<layer id="47" name="Transpose_22107" type="Convert" version="opset1">
			<data destination_type="f32" />
			<input>
				<port id="0" precision="FP16">
					<dim>24</dim>
				</port>
			</input>
			<output>
				<port id="1" precision="FP32" names="center_net_mobile_net_v2fpn_feature_extractor/model_1/model/expanded_conv_project_BN/FusedBatchNormV3;kpt_regress_0/separable_conv2d_7/separable_conv2d/depthwise;center_net_mobile_net_v2fpn_feature_extractor/model_1/model/expanded_conv_project/Conv2D_dequantize">
					<dim>24</dim>
				</port>
			</output>
		</layer>
		<layer id="48" name="Constant_22108" type="Const" version="opset1">
			<data element_type="i64" shape="3" offset="2762" size="24" />
			<output>
				<port id="0" precision="I64">
					<dim>3</dim>
				</port>
			</output>
		</layer>
		<layer id="49" name="Transpose_19275" type="Unsqueeze" version="opset1">
			<input>
				<port id="0" precision="FP32">
					<dim>24</dim>
				</port>
				<port id="1" precision="I64">
					<dim>3</dim>
				</port>
			</input>
			<output>
				<port id="2" precision="FP32">
					<dim>1</dim>
					<dim>24</dim>
					<dim>1</dim>
					<dim>1</dim>
				</port>
			</output>
		</layer>
		<layer id="50" name="Transpose_19277" type="Add" version="opset1">
			<data auto_broadcast="numpy" />
			<input>
				<port id="0" precision="FP32">
					<dim>1</dim>
					<dim>24</dim>
					<dim>-1</dim>
					<dim>-1</dim>
				</port>
				<port id="1" precision="FP32">
					<dim>1</dim>
					<dim>24</dim>
					<dim>1</dim>
					<dim>1</dim>
				</port>
			</input>
			<output>
				<port id="2" precision="FP32">
					<dim>1</dim>
					<dim>24</dim>
					<dim>-1</dim>
					<dim>-1</dim>
				</port>
			</output>
		</layer>
		<layer id="51" name="Transpose_22112" type="Const" version="opset1">
			<data element_type="f16" shape="144, 24, 1, 1" offset="6210" size="6912" />
			<output>
				<port id="0" precision="FP16">
					<dim>144</dim>
					<dim>24</dim>
					<dim>1</dim>
					<dim>1</dim>
				</port>
			</output>
		</layer>
		<layer id="52" name="Transpose_15365" type="Convert" version="opset1">
			<data destination_type="f32" />
			<input>
				<port id="0" precision="FP16">
					<dim>144</dim>
					<dim>24</dim>
					<dim>1</dim>
					<dim>1</dim>
				</port>
			</input>
			<output>
				<port id="1" precision="FP32" names="center_net_mobile_net_v2fpn_feature_extractor/model_1/model/block_1_expand/Conv2D_dequantize">
					<dim>144</dim>
					<dim>24</dim>
					<dim>1</dim>
					<dim>1</dim>
				</port>
			</output>
		</layer>
		<layer id="53" name="Convolution_15366" type="Convolution" version="opset1">
			<data strides="1, 1" dilations="1, 1" pads_begin="0, 0" pads_end="0, 0" auto_pad="same_upper" />
			<input>
				<port id="0" precision="FP32">
					<dim>1</dim>
					<dim>24</dim>
					<dim>-1</dim>
					<dim>-1</dim>
				</port>
				<port id="1" precision="FP32">
					<dim>144</dim>
					<dim>24</dim>
					<dim>1</dim>
					<dim>1</dim>
				</port>
			</input>
			<output>
				<port id="2" precision="FP32">
					<dim>1</dim>
					<dim>144</dim>
					<dim>-1</dim>
					<dim>-1</dim>
				</port>
			</output>
		</layer>
		<layer id="54" name="Transpose_22118" type="Const" version="opset1">
			<data element_type="f16" shape="144" offset="13122" size="288" />
			<output>
				<port id="0" precision="FP16">
					<dim>144</dim>
				</port>
			</output>
		</layer>
		<layer id="55" name="Transpose_22115" type="Convert" version="opset1">
			<data destination_type="f32" />
			<input>
				<port id="0" precision="FP16">
					<dim>144</dim>
				</port>
			</input>
			<output>
				<port id="1" precision="FP32" names="center_net_mobile_net_v2fpn_feature_extractor/model_1/model/block_1_expand_BN/FusedBatchNormV3_dequantize">
					<dim>144</dim>
				</port>
			</output>
		</layer>
		<layer id="56" name="Constant_22116" type="Const" version="opset1">
			<data element_type="i64" shape="3" offset="2762" size="24" />
			<output>
				<port id="0" precision="I64">
					<dim>3</dim>
				</port>
			</output>
		</layer>
		<layer id="57" name="Transpose_19281" type="Unsqueeze" version="opset1">
			<input>
				<port id="0" precision="FP32">
					<dim>144</dim>
				</port>
				<port id="1" precision="I64">
					<dim>3</dim>
				</port>
			</input>
			<output>
				<port id="2" precision="FP32">
					<dim>1</dim>
					<dim>144</dim>
					<dim>1</dim>
					<dim>1</dim>
				</port>
			</output>
		</layer>
		<layer id="58" name="Transpose_19283" type="Add" version="opset1">
			<data auto_broadcast="numpy" />
			<input>
				<port id="0" precision="FP32">
					<dim>1</dim>
					<dim>144</dim>
					<dim>-1</dim>
					<dim>-1</dim>
				</port>
				<port id="1" precision="FP32">
					<dim>1</dim>
					<dim>144</dim>
					<dim>1</dim>
					<dim>1</dim>
				</port>
			</input>
			<output>
				<port id="2" precision="FP32">
					<dim>1</dim>
					<dim>144</dim>
					<dim>-1</dim>
					<dim>-1</dim>
				</port>
			</output>
		</layer>
		<layer id="59" name="Transpose_19285" type="Clamp" version="opset1">
			<data min="0" max="6" />
			<input>
				<port id="0" precision="FP32">
					<dim>1</dim>
					<dim>144</dim>
					<dim>-1</dim>
					<dim>-1</dim>
				</port>
			</input>
			<output>
				<port id="1" precision="FP32">
					<dim>1</dim>
					<dim>144</dim>
					<dim>-1</dim>
					<dim>-1</dim>
				</port>
			</output>
		</layer>
		<layer id="60" name="center_net_mobile_net_v2fpn_feature_extractor/model_1/model/block_1_depthwise_BN/FusedBatchNormV3;center_net_mobile_net_v2fpn_feature_extractor/model_1/model/block_1_depthwise/depthwise;center_net_mobile_net_v2fpn_feature_extractor/model_1/model/block_12_project/Conv2D" type="Const" version="opset1">
			<data element_type="f16" shape="1, 3, 3, 144" offset="13410" size="2592" />
			<output>
				<port id="0" precision="FP16" names="center_net_mobile_net_v2fpn_feature_extractor/model_1/model/block_1_depthwise_BN/FusedBatchNormV3;center_net_mobile_net_v2fpn_feature_extractor/model_1/model/block_1_depthwise/depthwise;center_net_mobile_net_v2fpn_feature_extractor/model_1/model/block_12_project/Conv2D">
					<dim>1</dim>
					<dim>3</dim>
					<dim>3</dim>
					<dim>144</dim>
				</port>
			</output>
		</layer>
		<layer id="61" name="21" type="Convert" version="opset1">
			<data destination_type="f32" />
			<input>
				<port id="0" precision="FP16">
					<dim>1</dim>
					<dim>3</dim>
					<dim>3</dim>
					<dim>144</dim>
				</port>
			</input>
			<output>
				<port id="1" precision="FP32" names="center_net_mobile_net_v2fpn_feature_extractor/model_1/model/block_1_depthwise_BN/FusedBatchNormV3;center_net_mobile_net_v2fpn_feature_extractor/model_1/model/block_1_depthwise/depthwise;center_net_mobile_net_v2fpn_feature_extractor/model_1/model/block_12_project/Conv2D_dequantize">
					<dim>1</dim>
					<dim>3</dim>
					<dim>3</dim>
					<dim>144</dim>
				</port>
			</output>
		</layer>
		<layer id="62" name="Constant_28979" type="Const" version="opset1">
			<data element_type="i64" shape="4" offset="16002" size="32" />
			<rt_info>
				<attribute name="precise" version="0" />
			</rt_info>
			<output>
				<port id="0" precision="I64">
					<dim>4</dim>
				</port>
			</output>
		</layer>
		<layer id="63" name="Transpose_15374" type="Reshape" version="opset1">
			<data special_zero="true" />
			<input>
				<port id="0" precision="FP32">
					<dim>1</dim>
					<dim>3</dim>
					<dim>3</dim>
					<dim>144</dim>
				</port>
				<port id="1" precision="I64">
					<dim>4</dim>
				</port>
			</input>
			<output>
				<port id="2" precision="FP32">
					<dim>3</dim>
					<dim>3</dim>
					<dim>144</dim>
					<dim>1</dim>
				</port>
			</output>
		</layer>
		<layer id="64" name="Constant_15375" type="Const" version="opset1">
			<data element_type="i64" shape="4" offset="3682" size="32" />
			<rt_info>
				<attribute name="precise" version="0" />
			</rt_info>
			<output>
				<port id="0" precision="I64">
					<dim>4</dim>
				</port>
			</output>
		</layer>
		<layer id="65" name="Reshape_15376" type="Reshape" version="opset1">
			<data special_zero="true" />
			<input>
				<port id="0" precision="FP32">
					<dim>3</dim>
					<dim>3</dim>
					<dim>144</dim>
					<dim>1</dim>
				</port>
				<port id="1" precision="I64">
					<dim>4</dim>
				</port>
			</input>
			<output>
				<port id="2" precision="FP32">
					<dim>3</dim>
					<dim>3</dim>
					<dim>144</dim>
					<dim>1</dim>
				</port>
			</output>
		</layer>
		<layer id="66" name="Constant_15381" type="Const" version="opset1">
			<data element_type="i64" shape="1" offset="3714" size="8" />
			<output>
				<port id="0" precision="I64">
					<dim>1</dim>
				</port>
			</output>
		</layer>
		<layer id="67" name="Transpose_19288" type="Unsqueeze" version="opset1">
			<input>
				<port id="0" precision="FP32">
					<dim>3</dim>
					<dim>3</dim>
					<dim>144</dim>
					<dim>1</dim>
				</port>
				<port id="1" precision="I64">
					<dim>1</dim>
				</port>
			</input>
			<output>
				<port id="2" precision="FP32">
					<dim>3</dim>
					<dim>3</dim>
					<dim>144</dim>
					<dim>1</dim>
					<dim>1</dim>
				</port>
			</output>
		</layer>
		<layer id="68" name="Constant_19289" type="Const" version="opset1">
			<data element_type="i64" shape="5" offset="3722" size="40" />
			<output>
				<port id="0" precision="I64">
					<dim>5</dim>
				</port>
			</output>
		</layer>
		<layer id="69" name="Transpose_15384" type="Transpose" version="opset1">
			<input>
				<port id="0" precision="FP32">
					<dim>3</dim>
					<dim>3</dim>
					<dim>144</dim>
					<dim>1</dim>
					<dim>1</dim>
				</port>
				<port id="1" precision="I64">
					<dim>5</dim>
				</port>
			</input>
			<output>
				<port id="2" precision="FP32">
					<dim>144</dim>
					<dim>1</dim>
					<dim>1</dim>
					<dim>3</dim>
					<dim>3</dim>
				</port>
			</output>
		</layer>
		<layer id="70" name="GroupConvolution_15385" type="GroupConvolution" version="opset1">
			<data strides="2, 2" pads_begin="0, 0" pads_end="0, 0" dilations="1, 1" auto_pad="same_upper" />
			<input>
				<port id="0" precision="FP32">
					<dim>1</dim>
					<dim>144</dim>
					<dim>-1</dim>
					<dim>-1</dim>
				</port>
				<port id="1" precision="FP32">
					<dim>144</dim>
					<dim>1</dim>
					<dim>1</dim>
					<dim>3</dim>
					<dim>3</dim>
				</port>
			</input>
			<output>
				<port id="2" precision="FP32">
					<dim>1</dim>
					<dim>144</dim>
					<dim>-1</dim>
					<dim>-1</dim>
				</port>
			</output>
		</layer>
		<layer id="71" name="Transpose_22124" type="Const" version="opset1">
			<data element_type="f16" shape="144" offset="16034" size="288" />
			<output>
				<port id="0" precision="FP16">
					<dim>144</dim>
				</port>
			</output>
		</layer>
		<layer id="72" name="Transpose_22121" type="Convert" version="opset1">
			<data destination_type="f32" />
			<input>
				<port id="0" precision="FP16">
					<dim>144</dim>
				</port>
			</input>
			<output>
				<port id="1" precision="FP32" names="center_net_mobile_net_v2fpn_feature_extractor/model_1/model/block_1_depthwise_BN/FusedBatchNormV3_dequantize">
					<dim>144</dim>
				</port>
			</output>
		</layer>
		<layer id="73" name="Constant_22122" type="Const" version="opset1">
			<data element_type="i64" shape="3" offset="2762" size="24" />
			<output>
				<port id="0" precision="I64">
					<dim>3</dim>
				</port>
			</output>
		</layer>
		<layer id="74" name="Transpose_19294" type="Unsqueeze" version="opset1">
			<input>
				<port id="0" precision="FP32">
					<dim>144</dim>
				</port>
				<port id="1" precision="I64">
					<dim>3</dim>
				</port>
			</input>
			<output>
				<port id="2" precision="FP32">
					<dim>1</dim>
					<dim>144</dim>
					<dim>1</dim>
					<dim>1</dim>
				</port>
			</output>
		</layer>
		<layer id="75" name="Transpose_19296" type="Add" version="opset1">
			<data auto_broadcast="numpy" />
			<input>
				<port id="0" precision="FP32">
					<dim>1</dim>
					<dim>144</dim>
					<dim>-1</dim>
					<dim>-1</dim>
				</port>
				<port id="1" precision="FP32">
					<dim>1</dim>
					<dim>144</dim>
					<dim>1</dim>
					<dim>1</dim>
				</port>
			</input>
			<output>
				<port id="2" precision="FP32">
					<dim>1</dim>
					<dim>144</dim>
					<dim>-1</dim>
					<dim>-1</dim>
				</port>
			</output>
		</layer>
		<layer id="76" name="Transpose_19298" type="Clamp" version="opset1">
			<data min="0" max="6" />
			<input>
				<port id="0" precision="FP32">
					<dim>1</dim>
					<dim>144</dim>
					<dim>-1</dim>
					<dim>-1</dim>
				</port>
			</input>
			<output>
				<port id="1" precision="FP32">
					<dim>1</dim>
					<dim>144</dim>
					<dim>-1</dim>
					<dim>-1</dim>
				</port>
			</output>
		</layer>
		<layer id="77" name="Transpose_22126" type="Const" version="opset1">
			<data element_type="f16" shape="40, 144, 1, 1" offset="16322" size="11520" />
			<output>
				<port id="0" precision="FP16">
					<dim>40</dim>
					<dim>144</dim>
					<dim>1</dim>
					<dim>1</dim>
				</port>
			</output>
		</layer>
		<layer id="78" name="Transpose_15397" type="Convert" version="opset1">
			<data destination_type="f32" />
			<input>
				<port id="0" precision="FP16">
					<dim>40</dim>
					<dim>144</dim>
					<dim>1</dim>
					<dim>1</dim>
				</port>
			</input>
			<output>
				<port id="1" precision="FP32" names="center_net_mobile_net_v2fpn_feature_extractor/model_1/model/block_1_project/Conv2D_dequantize">
					<dim>40</dim>
					<dim>144</dim>
					<dim>1</dim>
					<dim>1</dim>
				</port>
			</output>
		</layer>
		<layer id="79" name="Convolution_15398" type="Convolution" version="opset1">
			<data strides="1, 1" dilations="1, 1" pads_begin="0, 0" pads_end="0, 0" auto_pad="same_upper" />
			<input>
				<port id="0" precision="FP32">
					<dim>1</dim>
					<dim>144</dim>
					<dim>-1</dim>
					<dim>-1</dim>
				</port>
				<port id="1" precision="FP32">
					<dim>40</dim>
					<dim>144</dim>
					<dim>1</dim>
					<dim>1</dim>
				</port>
			</input>
			<output>
				<port id="2" precision="FP32">
					<dim>1</dim>
					<dim>40</dim>
					<dim>-1</dim>
					<dim>-1</dim>
				</port>
			</output>
		</layer>
		<layer id="80" name="Transpose_22132" type="Const" version="opset1">
			<data element_type="f16" shape="40" offset="27842" size="80" />
			<output>
				<port id="0" precision="FP16">
					<dim>40</dim>
				</port>
			</output>
		</layer>
		<layer id="81" name="Transpose_22129" type="Convert" version="opset1">
			<data destination_type="f32" />
			<input>
				<port id="0" precision="FP16">
					<dim>40</dim>
				</port>
			</input>
			<output>
				<port id="1" precision="FP32" names="center_net_mobile_net_v2fpn_feature_extractor/model_1/model/block_1_project_BN/FusedBatchNormV3;center_net_mobile_net_v2fpn_feature_extractor/model_1/model/block_2_project/Conv2D;center_net_mobile_net_v2fpn_feature_extractor/model_1/model/block_1_project/Conv2D_dequantize">
					<dim>40</dim>
				</port>
			</output>
		</layer>
		<layer id="82" name="Constant_22130" type="Const" version="opset1">
			<data element_type="i64" shape="3" offset="2762" size="24" />
			<output>
				<port id="0" precision="I64">
					<dim>3</dim>
				</port>
			</output>
		</layer>
		<layer id="83" name="Transpose_19302" type="Unsqueeze" version="opset1">
			<input>
				<port id="0" precision="FP32">
					<dim>40</dim>
				</port>
				<port id="1" precision="I64">
					<dim>3</dim>
				</port>
			</input>
			<output>
				<port id="2" precision="FP32">
					<dim>1</dim>
					<dim>40</dim>
					<dim>1</dim>
					<dim>1</dim>
				</port>
			</output>
		</layer>
		<layer id="84" name="Transpose_19304" type="Add" version="opset1">
			<data auto_broadcast="numpy" />
			<input>
				<port id="0" precision="FP32">
					<dim>1</dim>
					<dim>40</dim>
					<dim>-1</dim>
					<dim>-1</dim>
				</port>
				<port id="1" precision="FP32">
					<dim>1</dim>
					<dim>40</dim>
					<dim>1</dim>
					<dim>1</dim>
				</port>
			</input>
			<output>
				<port id="2" precision="FP32">
					<dim>1</dim>
					<dim>40</dim>
					<dim>-1</dim>
					<dim>-1</dim>
				</port>
			</output>
		</layer>
		<layer id="85" name="Transpose_22134" type="Const" version="opset1">
			<data element_type="f16" shape="240, 40, 1, 1" offset="27922" size="19200" />
			<output>
				<port id="0" precision="FP16">
					<dim>240</dim>
					<dim>40</dim>
					<dim>1</dim>
					<dim>1</dim>
				</port>
			</output>
		</layer>
		<layer id="86" name="Transpose_15409" type="Convert" version="opset1">
			<data destination_type="f32" />
			<input>
				<port id="0" precision="FP16">
					<dim>240</dim>
					<dim>40</dim>
					<dim>1</dim>
					<dim>1</dim>
				</port>
			</input>
			<output>
				<port id="1" precision="FP32" names="center_net_mobile_net_v2fpn_feature_extractor/model_1/model/block_2_expand/Conv2D_dequantize">
					<dim>240</dim>
					<dim>40</dim>
					<dim>1</dim>
					<dim>1</dim>
				</port>
			</output>
		</layer>
		<layer id="87" name="Convolution_15410" type="Convolution" version="opset1">
			<data strides="1, 1" dilations="1, 1" pads_begin="0, 0" pads_end="0, 0" auto_pad="same_upper" />
			<input>
				<port id="0" precision="FP32">
					<dim>1</dim>
					<dim>40</dim>
					<dim>-1</dim>
					<dim>-1</dim>
				</port>
				<port id="1" precision="FP32">
					<dim>240</dim>
					<dim>40</dim>
					<dim>1</dim>
					<dim>1</dim>
				</port>
			</input>
			<output>
				<port id="2" precision="FP32">
					<dim>1</dim>
					<dim>240</dim>
					<dim>-1</dim>
					<dim>-1</dim>
				</port>
			</output>
		</layer>
		<layer id="88" name="Transpose_22140" type="Const" version="opset1">
			<data element_type="f16" shape="240" offset="47122" size="480" />
			<output>
				<port id="0" precision="FP16">
					<dim>240</dim>
				</port>
			</output>
		</layer>
		<layer id="89" name="Transpose_22137" type="Convert" version="opset1">
			<data destination_type="f32" />
			<input>
				<port id="0" precision="FP16">
					<dim>240</dim>
				</port>
			</input>
			<output>
				<port id="1" precision="FP32" names="center_net_mobile_net_v2fpn_feature_extractor/model_1/model/block_2_expand_BN/FusedBatchNormV3_dequantize">
					<dim>240</dim>
				</port>
			</output>
		</layer>
		<layer id="90" name="Constant_22138" type="Const" version="opset1">
			<data element_type="i64" shape="3" offset="2762" size="24" />
			<output>
				<port id="0" precision="I64">
					<dim>3</dim>
				</port>
			</output>
		</layer>
		<layer id="91" name="Transpose_19308" type="Unsqueeze" version="opset1">
			<input>
				<port id="0" precision="FP32">
					<dim>240</dim>
				</port>
				<port id="1" precision="I64">
					<dim>3</dim>
				</port>
			</input>
			<output>
				<port id="2" precision="FP32">
					<dim>1</dim>
					<dim>240</dim>
					<dim>1</dim>
					<dim>1</dim>
				</port>
			</output>
		</layer>
		<layer id="92" name="Transpose_19310" type="Add" version="opset1">
			<data auto_broadcast="numpy" />
			<input>
				<port id="0" precision="FP32">
					<dim>1</dim>
					<dim>240</dim>
					<dim>-1</dim>
					<dim>-1</dim>
				</port>
				<port id="1" precision="FP32">
					<dim>1</dim>
					<dim>240</dim>
					<dim>1</dim>
					<dim>1</dim>
				</port>
			</input>
			<output>
				<port id="2" precision="FP32">
					<dim>1</dim>
					<dim>240</dim>
					<dim>-1</dim>
					<dim>-1</dim>
				</port>
			</output>
		</layer>
		<layer id="93" name="Transpose_19312" type="Clamp" version="opset1">
			<data min="0" max="6" />
			<input>
				<port id="0" precision="FP32">
					<dim>1</dim>
					<dim>240</dim>
					<dim>-1</dim>
					<dim>-1</dim>
				</port>
			</input>
			<output>
				<port id="1" precision="FP32">
					<dim>1</dim>
					<dim>240</dim>
					<dim>-1</dim>
					<dim>-1</dim>
				</port>
			</output>
		</layer>
		<layer id="94" name="center_net_mobile_net_v2fpn_feature_extractor/model_1/model/block_2_depthwise_BN/FusedBatchNormV3;center_net_mobile_net_v2fpn_feature_extractor/model_1/model/block_2_depthwise/depthwise;center_net_mobile_net_v2fpn_feature_extractor/model_1/model/block_15_project/Conv2D" type="Const" version="opset1">
			<data element_type="f16" shape="1, 3, 3, 240" offset="47602" size="4320" />
			<output>
				<port id="0" precision="FP16" names="center_net_mobile_net_v2fpn_feature_extractor/model_1/model/block_2_depthwise_BN/FusedBatchNormV3;center_net_mobile_net_v2fpn_feature_extractor/model_1/model/block_2_depthwise/depthwise;center_net_mobile_net_v2fpn_feature_extractor/model_1/model/block_15_project/Conv2D">
					<dim>1</dim>
					<dim>3</dim>
					<dim>3</dim>
					<dim>240</dim>
				</port>
			</output>
		</layer>
		<layer id="95" name="31" type="Convert" version="opset1">
			<data destination_type="f32" />
			<input>
				<port id="0" precision="FP16">
					<dim>1</dim>
					<dim>3</dim>
					<dim>3</dim>
					<dim>240</dim>
				</port>
			</input>
			<output>
				<port id="1" precision="FP32" names="center_net_mobile_net_v2fpn_feature_extractor/model_1/model/block_2_depthwise_BN/FusedBatchNormV3;center_net_mobile_net_v2fpn_feature_extractor/model_1/model/block_2_depthwise/depthwise;center_net_mobile_net_v2fpn_feature_extractor/model_1/model/block_15_project/Conv2D_dequantize">
					<dim>1</dim>
					<dim>3</dim>
					<dim>3</dim>
					<dim>240</dim>
				</port>
			</output>
		</layer>
		<layer id="96" name="Constant_28981" type="Const" version="opset1">
			<data element_type="i64" shape="4" offset="51922" size="32" />
			<rt_info>
				<attribute name="precise" version="0" />
			</rt_info>
			<output>
				<port id="0" precision="I64">
					<dim>4</dim>
				</port>
			</output>
		</layer>
		<layer id="97" name="Transpose_15418" type="Reshape" version="opset1">
			<data special_zero="true" />
			<input>
				<port id="0" precision="FP32">
					<dim>1</dim>
					<dim>3</dim>
					<dim>3</dim>
					<dim>240</dim>
				</port>
				<port id="1" precision="I64">
					<dim>4</dim>
				</port>
			</input>
			<output>
				<port id="2" precision="FP32">
					<dim>3</dim>
					<dim>3</dim>
					<dim>240</dim>
					<dim>1</dim>
				</port>
			</output>
		</layer>
		<layer id="98" name="Constant_15419" type="Const" version="opset1">
			<data element_type="i64" shape="4" offset="3682" size="32" />
			<rt_info>
				<attribute name="precise" version="0" />
			</rt_info>
			<output>
				<port id="0" precision="I64">
					<dim>4</dim>
				</port>
			</output>
		</layer>
		<layer id="99" name="Reshape_15420" type="Reshape" version="opset1">
			<data special_zero="true" />
			<input>
				<port id="0" precision="FP32">
					<dim>3</dim>
					<dim>3</dim>
					<dim>240</dim>
					<dim>1</dim>
				</port>
				<port id="1" precision="I64">
					<dim>4</dim>
				</port>
			</input>
			<output>
				<port id="2" precision="FP32">
					<dim>3</dim>
					<dim>3</dim>
					<dim>240</dim>
					<dim>1</dim>
				</port>
			</output>
		</layer>
		<layer id="100" name="Constant_15425" type="Const" version="opset1">
			<data element_type="i64" shape="1" offset="3714" size="8" />
			<output>
				<port id="0" precision="I64">
					<dim>1</dim>
				</port>
			</output>
		</layer>
		<layer id="101" name="Transpose_19315" type="Unsqueeze" version="opset1">
			<input>
				<port id="0" precision="FP32">
					<dim>3</dim>
					<dim>3</dim>
					<dim>240</dim>
					<dim>1</dim>
				</port>
				<port id="1" precision="I64">
					<dim>1</dim>
				</port>
			</input>
			<output>
				<port id="2" precision="FP32">
					<dim>3</dim>
					<dim>3</dim>
					<dim>240</dim>
					<dim>1</dim>
					<dim>1</dim>
				</port>
			</output>
		</layer>
		<layer id="102" name="Constant_19316" type="Const" version="opset1">
			<data element_type="i64" shape="5" offset="3722" size="40" />
			<output>
				<port id="0" precision="I64">
					<dim>5</dim>
				</port>
			</output>
		</layer>
		<layer id="103" name="Transpose_15428" type="Transpose" version="opset1">
			<input>
				<port id="0" precision="FP32">
					<dim>3</dim>
					<dim>3</dim>
					<dim>240</dim>
					<dim>1</dim>
					<dim>1</dim>
				</port>
				<port id="1" precision="I64">
					<dim>5</dim>
				</port>
			</input>
			<output>
				<port id="2" precision="FP32">
					<dim>240</dim>
					<dim>1</dim>
					<dim>1</dim>
					<dim>3</dim>
					<dim>3</dim>
				</port>
			</output>
		</layer>
		<layer id="104" name="GroupConvolution_15429" type="GroupConvolution" version="opset1">
			<data strides="1, 1" pads_begin="0, 0" pads_end="0, 0" dilations="1, 1" auto_pad="same_upper" />
			<input>
				<port id="0" precision="FP32">
					<dim>1</dim>
					<dim>240</dim>
					<dim>-1</dim>
					<dim>-1</dim>
				</port>
				<port id="1" precision="FP32">
					<dim>240</dim>
					<dim>1</dim>
					<dim>1</dim>
					<dim>3</dim>
					<dim>3</dim>
				</port>
			</input>
			<output>
				<port id="2" precision="FP32">
					<dim>1</dim>
					<dim>240</dim>
					<dim>-1</dim>
					<dim>-1</dim>
				</port>
			</output>
		</layer>
		<layer id="105" name="Transpose_22146" type="Const" version="opset1">
			<data element_type="f16" shape="240" offset="51954" size="480" />
			<output>
				<port id="0" precision="FP16">
					<dim>240</dim>
				</port>
			</output>
		</layer>
		<layer id="106" name="Transpose_22143" type="Convert" version="opset1">
			<data destination_type="f32" />
			<input>
				<port id="0" precision="FP16">
					<dim>240</dim>
				</port>
			</input>
			<output>
				<port id="1" precision="FP32" names="center_net_mobile_net_v2fpn_feature_extractor/model_1/model/block_2_depthwise_BN/FusedBatchNormV3_dequantize">
					<dim>240</dim>
				</port>
			</output>
		</layer>
		<layer id="107" name="Constant_22144" type="Const" version="opset1">
			<data element_type="i64" shape="3" offset="2762" size="24" />
			<output>
				<port id="0" precision="I64">
					<dim>3</dim>
				</port>
			</output>
		</layer>
		<layer id="108" name="Transpose_19321" type="Unsqueeze" version="opset1">
			<input>
				<port id="0" precision="FP32">
					<dim>240</dim>
				</port>
				<port id="1" precision="I64">
					<dim>3</dim>
				</port>
			</input>
			<output>
				<port id="2" precision="FP32">
					<dim>1</dim>
					<dim>240</dim>
					<dim>1</dim>
					<dim>1</dim>
				</port>
			</output>
		</layer>
		<layer id="109" name="Transpose_19323" type="Add" version="opset1">
			<data auto_broadcast="numpy" />
			<input>
				<port id="0" precision="FP32">
					<dim>1</dim>
					<dim>240</dim>
					<dim>-1</dim>
					<dim>-1</dim>
				</port>
				<port id="1" precision="FP32">
					<dim>1</dim>
					<dim>240</dim>
					<dim>1</dim>
					<dim>1</dim>
				</port>
			</input>
			<output>
				<port id="2" precision="FP32">
					<dim>1</dim>
					<dim>240</dim>
					<dim>-1</dim>
					<dim>-1</dim>
				</port>
			</output>
		</layer>
		<layer id="110" name="Transpose_19325" type="Clamp" version="opset1">
			<data min="0" max="6" />
			<input>
				<port id="0" precision="FP32">
					<dim>1</dim>
					<dim>240</dim>
					<dim>-1</dim>
					<dim>-1</dim>
				</port>
			</input>
			<output>
				<port id="1" precision="FP32">
					<dim>1</dim>
					<dim>240</dim>
					<dim>-1</dim>
					<dim>-1</dim>
				</port>
			</output>
		</layer>
		<layer id="111" name="Transpose_22148" type="Const" version="opset1">
			<data element_type="f16" shape="40, 240, 1, 1" offset="52434" size="19200" />
			<output>
				<port id="0" precision="FP16">
					<dim>40</dim>
					<dim>240</dim>
					<dim>1</dim>
					<dim>1</dim>
				</port>
			</output>
		</layer>
		<layer id="112" name="Transpose_15441" type="Convert" version="opset1">
			<data destination_type="f32" />
			<input>
				<port id="0" precision="FP16">
					<dim>40</dim>
					<dim>240</dim>
					<dim>1</dim>
					<dim>1</dim>
				</port>
			</input>
			<output>
				<port id="1" precision="FP32" names="center_net_mobile_net_v2fpn_feature_extractor/model_1/model/block_2_project/Conv2D_dequantize">
					<dim>40</dim>
					<dim>240</dim>
					<dim>1</dim>
					<dim>1</dim>
				</port>
			</output>
		</layer>
		<layer id="113" name="Convolution_15442" type="Convolution" version="opset1">
			<data strides="1, 1" dilations="1, 1" pads_begin="0, 0" pads_end="0, 0" auto_pad="same_upper" />
			<input>
				<port id="0" precision="FP32">
					<dim>1</dim>
					<dim>240</dim>
					<dim>-1</dim>
					<dim>-1</dim>
				</port>
				<port id="1" precision="FP32">
					<dim>40</dim>
					<dim>240</dim>
					<dim>1</dim>
					<dim>1</dim>
				</port>
			</input>
			<output>
				<port id="2" precision="FP32">
					<dim>1</dim>
					<dim>40</dim>
					<dim>-1</dim>
					<dim>-1</dim>
				</port>
			</output>
		</layer>
		<layer id="114" name="Transpose_22154" type="Const" version="opset1">
			<data element_type="f16" shape="40" offset="71634" size="80" />
			<output>
				<port id="0" precision="FP16">
					<dim>40</dim>
				</port>
			</output>
		</layer>
		<layer id="115" name="Transpose_22151" type="Convert" version="opset1">
			<data destination_type="f32" />
			<input>
				<port id="0" precision="FP16">
					<dim>40</dim>
				</port>
			</input>
			<output>
				<port id="1" precision="FP32" names="center_net_mobile_net_v2fpn_feature_extractor/model_1/model/block_2_project_BN/FusedBatchNormV3;center_net_mobile_net_v2fpn_feature_extractor/model_1/model/block_2_project/Conv2D_dequantize">
					<dim>40</dim>
				</port>
			</output>
		</layer>
		<layer id="116" name="Constant_22152" type="Const" version="opset1">
			<data element_type="i64" shape="3" offset="2762" size="24" />
			<output>
				<port id="0" precision="I64">
					<dim>3</dim>
				</port>
			</output>
		</layer>
		<layer id="117" name="Transpose_19329" type="Unsqueeze" version="opset1">
			<input>
				<port id="0" precision="FP32">
					<dim>40</dim>
				</port>
				<port id="1" precision="I64">
					<dim>3</dim>
				</port>
			</input>
			<output>
				<port id="2" precision="FP32">
					<dim>1</dim>
					<dim>40</dim>
					<dim>1</dim>
					<dim>1</dim>
				</port>
			</output>
		</layer>
		<layer id="118" name="Transpose_19331" type="Add" version="opset1">
			<data auto_broadcast="numpy" />
			<input>
				<port id="0" precision="FP32">
					<dim>1</dim>
					<dim>40</dim>
					<dim>-1</dim>
					<dim>-1</dim>
				</port>
				<port id="1" precision="FP32">
					<dim>1</dim>
					<dim>40</dim>
					<dim>1</dim>
					<dim>1</dim>
				</port>
			</input>
			<output>
				<port id="2" precision="FP32">
					<dim>1</dim>
					<dim>40</dim>
					<dim>-1</dim>
					<dim>-1</dim>
				</port>
			</output>
		</layer>
		<layer id="119" name="Transpose_19335" type="Add" version="opset1">
			<data auto_broadcast="numpy" />
			<input>
				<port id="0" precision="FP32">
					<dim>1</dim>
					<dim>40</dim>
					<dim>-1</dim>
					<dim>-1</dim>
				</port>
				<port id="1" precision="FP32">
					<dim>1</dim>
					<dim>40</dim>
					<dim>-1</dim>
					<dim>-1</dim>
				</port>
			</input>
			<output>
				<port id="2" precision="FP32">
					<dim>1</dim>
					<dim>40</dim>
					<dim>-1</dim>
					<dim>-1</dim>
				</port>
			</output>
		</layer>
		<layer id="120" name="Transpose_22156" type="Const" version="opset1">
			<data element_type="f16" shape="240, 40, 1, 1" offset="71714" size="19200" />
			<output>
				<port id="0" precision="FP16">
					<dim>240</dim>
					<dim>40</dim>
					<dim>1</dim>
					<dim>1</dim>
				</port>
			</output>
		</layer>
		<layer id="121" name="Transpose_15466" type="Convert" version="opset1">
			<data destination_type="f32" />
			<input>
				<port id="0" precision="FP16">
					<dim>240</dim>
					<dim>40</dim>
					<dim>1</dim>
					<dim>1</dim>
				</port>
			</input>
			<output>
				<port id="1" precision="FP32" names="center_net_mobile_net_v2fpn_feature_extractor/model_1/model/block_3_expand/Conv2D_dequantize">
					<dim>240</dim>
					<dim>40</dim>
					<dim>1</dim>
					<dim>1</dim>
				</port>
			</output>
		</layer>
		<layer id="122" name="Convolution_15467" type="Convolution" version="opset1">
			<data strides="1, 1" dilations="1, 1" pads_begin="0, 0" pads_end="0, 0" auto_pad="same_upper" />
			<input>
				<port id="0" precision="FP32">
					<dim>1</dim>
					<dim>40</dim>
					<dim>-1</dim>
					<dim>-1</dim>
				</port>
				<port id="1" precision="FP32">
					<dim>240</dim>
					<dim>40</dim>
					<dim>1</dim>
					<dim>1</dim>
				</port>
			</input>
			<output>
				<port id="2" precision="FP32">
					<dim>1</dim>
					<dim>240</dim>
					<dim>-1</dim>
					<dim>-1</dim>
				</port>
			</output>
		</layer>
		<layer id="123" name="Transpose_22162" type="Const" version="opset1">
			<data element_type="f16" shape="240" offset="90914" size="480" />
			<output>
				<port id="0" precision="FP16">
					<dim>240</dim>
				</port>
			</output>
		</layer>
		<layer id="124" name="Transpose_22159" type="Convert" version="opset1">
			<data destination_type="f32" />
			<input>
				<port id="0" precision="FP16">
					<dim>240</dim>
				</port>
			</input>
			<output>
				<port id="1" precision="FP32" names="center_net_mobile_net_v2fpn_feature_extractor/model_1/model/block_3_expand_BN/FusedBatchNormV3_dequantize">
					<dim>240</dim>
				</port>
			</output>
		</layer>
		<layer id="125" name="Constant_22160" type="Const" version="opset1">
			<data element_type="i64" shape="3" offset="2762" size="24" />
			<output>
				<port id="0" precision="I64">
					<dim>3</dim>
				</port>
			</output>
		</layer>
		<layer id="126" name="Transpose_19339" type="Unsqueeze" version="opset1">
			<input>
				<port id="0" precision="FP32">
					<dim>240</dim>
				</port>
				<port id="1" precision="I64">
					<dim>3</dim>
				</port>
			</input>
			<output>
				<port id="2" precision="FP32">
					<dim>1</dim>
					<dim>240</dim>
					<dim>1</dim>
					<dim>1</dim>
				</port>
			</output>
		</layer>
		<layer id="127" name="Transpose_19341" type="Add" version="opset1">
			<data auto_broadcast="numpy" />
			<input>
				<port id="0" precision="FP32">
					<dim>1</dim>
					<dim>240</dim>
					<dim>-1</dim>
					<dim>-1</dim>
				</port>
				<port id="1" precision="FP32">
					<dim>1</dim>
					<dim>240</dim>
					<dim>1</dim>
					<dim>1</dim>
				</port>
			</input>
			<output>
				<port id="2" precision="FP32">
					<dim>1</dim>
					<dim>240</dim>
					<dim>-1</dim>
					<dim>-1</dim>
				</port>
			</output>
		</layer>
		<layer id="128" name="Transpose_19343" type="Clamp" version="opset1">
			<data min="0" max="6" />
			<input>
				<port id="0" precision="FP32">
					<dim>1</dim>
					<dim>240</dim>
					<dim>-1</dim>
					<dim>-1</dim>
				</port>
			</input>
			<output>
				<port id="1" precision="FP32">
					<dim>1</dim>
					<dim>240</dim>
					<dim>-1</dim>
					<dim>-1</dim>
				</port>
			</output>
		</layer>
		<layer id="129" name="center_net_mobile_net_v2fpn_feature_extractor/model_1/model/block_3_depthwise_BN/FusedBatchNormV3;center_net_mobile_net_v2fpn_feature_extractor/model_1/model/block_3_depthwise/depthwise;center_net_mobile_net_v2fpn_feature_extractor/model_1/model/block_15_project/Conv2D" type="Const" version="opset1">
			<data element_type="f16" shape="1, 3, 3, 240" offset="91394" size="4320" />
			<output>
				<port id="0" precision="FP16" names="center_net_mobile_net_v2fpn_feature_extractor/model_1/model/block_3_depthwise_BN/FusedBatchNormV3;center_net_mobile_net_v2fpn_feature_extractor/model_1/model/block_3_depthwise/depthwise;center_net_mobile_net_v2fpn_feature_extractor/model_1/model/block_15_project/Conv2D">
					<dim>1</dim>
					<dim>3</dim>
					<dim>3</dim>
					<dim>240</dim>
				</port>
			</output>
		</layer>
		<layer id="130" name="43" type="Convert" version="opset1">
			<data destination_type="f32" />
			<input>
				<port id="0" precision="FP16">
					<dim>1</dim>
					<dim>3</dim>
					<dim>3</dim>
					<dim>240</dim>
				</port>
			</input>
			<output>
				<port id="1" precision="FP32" names="center_net_mobile_net_v2fpn_feature_extractor/model_1/model/block_3_depthwise_BN/FusedBatchNormV3;center_net_mobile_net_v2fpn_feature_extractor/model_1/model/block_3_depthwise/depthwise;center_net_mobile_net_v2fpn_feature_extractor/model_1/model/block_15_project/Conv2D_dequantize">
					<dim>1</dim>
					<dim>3</dim>
					<dim>3</dim>
					<dim>240</dim>
				</port>
			</output>
		</layer>
		<layer id="131" name="Constant_28983" type="Const" version="opset1">
			<data element_type="i64" shape="4" offset="51922" size="32" />
			<rt_info>
				<attribute name="precise" version="0" />
			</rt_info>
			<output>
				<port id="0" precision="I64">
					<dim>4</dim>
				</port>
			</output>
		</layer>
		<layer id="132" name="Transpose_15475" type="Reshape" version="opset1">
			<data special_zero="true" />
			<input>
				<port id="0" precision="FP32">
					<dim>1</dim>
					<dim>3</dim>
					<dim>3</dim>
					<dim>240</dim>
				</port>
				<port id="1" precision="I64">
					<dim>4</dim>
				</port>
			</input>
			<output>
				<port id="2" precision="FP32">
					<dim>3</dim>
					<dim>3</dim>
					<dim>240</dim>
					<dim>1</dim>
				</port>
			</output>
		</layer>
		<layer id="133" name="Constant_15476" type="Const" version="opset1">
			<data element_type="i64" shape="4" offset="3682" size="32" />
			<rt_info>
				<attribute name="precise" version="0" />
			</rt_info>
			<output>
				<port id="0" precision="I64">
					<dim>4</dim>
				</port>
			</output>
		</layer>
		<layer id="134" name="Reshape_15477" type="Reshape" version="opset1">
			<data special_zero="true" />
			<input>
				<port id="0" precision="FP32">
					<dim>3</dim>
					<dim>3</dim>
					<dim>240</dim>
					<dim>1</dim>
				</port>
				<port id="1" precision="I64">
					<dim>4</dim>
				</port>
			</input>
			<output>
				<port id="2" precision="FP32">
					<dim>3</dim>
					<dim>3</dim>
					<dim>240</dim>
					<dim>1</dim>
				</port>
			</output>
		</layer>
		<layer id="135" name="Constant_15482" type="Const" version="opset1">
			<data element_type="i64" shape="1" offset="3714" size="8" />
			<output>
				<port id="0" precision="I64">
					<dim>1</dim>
				</port>
			</output>
		</layer>
		<layer id="136" name="Transpose_19346" type="Unsqueeze" version="opset1">
			<input>
				<port id="0" precision="FP32">
					<dim>3</dim>
					<dim>3</dim>
					<dim>240</dim>
					<dim>1</dim>
				</port>
				<port id="1" precision="I64">
					<dim>1</dim>
				</port>
			</input>
			<output>
				<port id="2" precision="FP32">
					<dim>3</dim>
					<dim>3</dim>
					<dim>240</dim>
					<dim>1</dim>
					<dim>1</dim>
				</port>
			</output>
		</layer>
		<layer id="137" name="Constant_19347" type="Const" version="opset1">
			<data element_type="i64" shape="5" offset="3722" size="40" />
			<output>
				<port id="0" precision="I64">
					<dim>5</dim>
				</port>
			</output>
		</layer>
		<layer id="138" name="Transpose_15485" type="Transpose" version="opset1">
			<input>
				<port id="0" precision="FP32">
					<dim>3</dim>
					<dim>3</dim>
					<dim>240</dim>
					<dim>1</dim>
					<dim>1</dim>
				</port>
				<port id="1" precision="I64">
					<dim>5</dim>
				</port>
			</input>
			<output>
				<port id="2" precision="FP32">
					<dim>240</dim>
					<dim>1</dim>
					<dim>1</dim>
					<dim>3</dim>
					<dim>3</dim>
				</port>
			</output>
		</layer>
		<layer id="139" name="GroupConvolution_15486" type="GroupConvolution" version="opset1">
			<data strides="2, 2" pads_begin="0, 0" pads_end="0, 0" dilations="1, 1" auto_pad="same_upper" />
			<input>
				<port id="0" precision="FP32">
					<dim>1</dim>
					<dim>240</dim>
					<dim>-1</dim>
					<dim>-1</dim>
				</port>
				<port id="1" precision="FP32">
					<dim>240</dim>
					<dim>1</dim>
					<dim>1</dim>
					<dim>3</dim>
					<dim>3</dim>
				</port>
			</input>
			<output>
				<port id="2" precision="FP32">
					<dim>1</dim>
					<dim>240</dim>
					<dim>-1</dim>
					<dim>-1</dim>
				</port>
			</output>
		</layer>
		<layer id="140" name="Transpose_22168" type="Const" version="opset1">
			<data element_type="f16" shape="240" offset="95714" size="480" />
			<output>
				<port id="0" precision="FP16">
					<dim>240</dim>
				</port>
			</output>
		</layer>
		<layer id="141" name="Transpose_22165" type="Convert" version="opset1">
			<data destination_type="f32" />
			<input>
				<port id="0" precision="FP16">
					<dim>240</dim>
				</port>
			</input>
			<output>
				<port id="1" precision="FP32" names="center_net_mobile_net_v2fpn_feature_extractor/model_1/model/block_3_depthwise_BN/FusedBatchNormV3_dequantize">
					<dim>240</dim>
				</port>
			</output>
		</layer>
		<layer id="142" name="Constant_22166" type="Const" version="opset1">
			<data element_type="i64" shape="3" offset="2762" size="24" />
			<output>
				<port id="0" precision="I64">
					<dim>3</dim>
				</port>
			</output>
		</layer>
		<layer id="143" name="Transpose_19352" type="Unsqueeze" version="opset1">
			<input>
				<port id="0" precision="FP32">
					<dim>240</dim>
				</port>
				<port id="1" precision="I64">
					<dim>3</dim>
				</port>
			</input>
			<output>
				<port id="2" precision="FP32">
					<dim>1</dim>
					<dim>240</dim>
					<dim>1</dim>
					<dim>1</dim>
				</port>
			</output>
		</layer>
		<layer id="144" name="Transpose_19354" type="Add" version="opset1">
			<data auto_broadcast="numpy" />
			<input>
				<port id="0" precision="FP32">
					<dim>1</dim>
					<dim>240</dim>
					<dim>-1</dim>
					<dim>-1</dim>
				</port>
				<port id="1" precision="FP32">
					<dim>1</dim>
					<dim>240</dim>
					<dim>1</dim>
					<dim>1</dim>
				</port>
			</input>
			<output>
				<port id="2" precision="FP32">
					<dim>1</dim>
					<dim>240</dim>
					<dim>-1</dim>
					<dim>-1</dim>
				</port>
			</output>
		</layer>
		<layer id="145" name="Transpose_19356" type="Clamp" version="opset1">
			<data min="0" max="6" />
			<input>
				<port id="0" precision="FP32">
					<dim>1</dim>
					<dim>240</dim>
					<dim>-1</dim>
					<dim>-1</dim>
				</port>
			</input>
			<output>
				<port id="1" precision="FP32">
					<dim>1</dim>
					<dim>240</dim>
					<dim>-1</dim>
					<dim>-1</dim>
				</port>
			</output>
		</layer>
		<layer id="146" name="Transpose_22170" type="Const" version="opset1">
			<data element_type="f16" shape="48, 240, 1, 1" offset="96194" size="23040" />
			<output>
				<port id="0" precision="FP16">
					<dim>48</dim>
					<dim>240</dim>
					<dim>1</dim>
					<dim>1</dim>
				</port>
			</output>
		</layer>
		<layer id="147" name="Transpose_15498" type="Convert" version="opset1">
			<data destination_type="f32" />
			<input>
				<port id="0" precision="FP16">
					<dim>48</dim>
					<dim>240</dim>
					<dim>1</dim>
					<dim>1</dim>
				</port>
			</input>
			<output>
				<port id="1" precision="FP32" names="center_net_mobile_net_v2fpn_feature_extractor/model_1/model/block_3_project/Conv2D_dequantize">
					<dim>48</dim>
					<dim>240</dim>
					<dim>1</dim>
					<dim>1</dim>
				</port>
			</output>
		</layer>
		<layer id="148" name="Convolution_15499" type="Convolution" version="opset1">
			<data strides="1, 1" dilations="1, 1" pads_begin="0, 0" pads_end="0, 0" auto_pad="same_upper" />
			<input>
				<port id="0" precision="FP32">
					<dim>1</dim>
					<dim>240</dim>
					<dim>-1</dim>
					<dim>-1</dim>
				</port>
				<port id="1" precision="FP32">
					<dim>48</dim>
					<dim>240</dim>
					<dim>1</dim>
					<dim>1</dim>
				</port>
			</input>
			<output>
				<port id="2" precision="FP32">
					<dim>1</dim>
					<dim>48</dim>
					<dim>-1</dim>
					<dim>-1</dim>
				</port>
			</output>
		</layer>
		<layer id="149" name="Transpose_22176" type="Const" version="opset1">
			<data element_type="f16" shape="48" offset="119234" size="96" />
			<output>
				<port id="0" precision="FP16">
					<dim>48</dim>
				</port>
			</output>
		</layer>
		<layer id="150" name="Transpose_22173" type="Convert" version="opset1">
			<data destination_type="f32" />
			<input>
				<port id="0" precision="FP16">
					<dim>48</dim>
				</port>
			</input>
			<output>
				<port id="1" precision="FP32" names="center_net_mobile_net_v2fpn_feature_extractor/model_1/model/block_3_project_BN/FusedBatchNormV3;center_net_mobile_net_v2fpn_feature_extractor/model_1/model/block_5_project/Conv2D;center_net_mobile_net_v2fpn_feature_extractor/model_1/model/block_3_project/Conv2D_dequantize">
					<dim>48</dim>
				</port>
			</output>
		</layer>
		<layer id="151" name="Constant_22174" type="Const" version="opset1">
			<data element_type="i64" shape="3" offset="2762" size="24" />
			<output>
				<port id="0" precision="I64">
					<dim>3</dim>
				</port>
			</output>
		</layer>
		<layer id="152" name="Transpose_19360" type="Unsqueeze" version="opset1">
			<input>
				<port id="0" precision="FP32">
					<dim>48</dim>
				</port>
				<port id="1" precision="I64">
					<dim>3</dim>
				</port>
			</input>
			<output>
				<port id="2" precision="FP32">
					<dim>1</dim>
					<dim>48</dim>
					<dim>1</dim>
					<dim>1</dim>
				</port>
			</output>
		</layer>
		<layer id="153" name="Transpose_19362" type="Add" version="opset1">
			<data auto_broadcast="numpy" />
			<input>
				<port id="0" precision="FP32">
					<dim>1</dim>
					<dim>48</dim>
					<dim>-1</dim>
					<dim>-1</dim>
				</port>
				<port id="1" precision="FP32">
					<dim>1</dim>
					<dim>48</dim>
					<dim>1</dim>
					<dim>1</dim>
				</port>
			</input>
			<output>
				<port id="2" precision="FP32">
					<dim>1</dim>
					<dim>48</dim>
					<dim>-1</dim>
					<dim>-1</dim>
				</port>
			</output>
		</layer>
		<layer id="154" name="Transpose_22178" type="Const" version="opset1">
			<data element_type="f16" shape="288, 48, 1, 1" offset="119330" size="27648" />
			<output>
				<port id="0" precision="FP16">
					<dim>288</dim>
					<dim>48</dim>
					<dim>1</dim>
					<dim>1</dim>
				</port>
			</output>
		</layer>
		<layer id="155" name="Transpose_15510" type="Convert" version="opset1">
			<data destination_type="f32" />
			<input>
				<port id="0" precision="FP16">
					<dim>288</dim>
					<dim>48</dim>
					<dim>1</dim>
					<dim>1</dim>
				</port>
			</input>
			<output>
				<port id="1" precision="FP32" names="center_net_mobile_net_v2fpn_feature_extractor/model_1/model/block_4_expand/Conv2D_dequantize">
					<dim>288</dim>
					<dim>48</dim>
					<dim>1</dim>
					<dim>1</dim>
				</port>
			</output>
		</layer>
		<layer id="156" name="Convolution_15511" type="Convolution" version="opset1">
			<data strides="1, 1" dilations="1, 1" pads_begin="0, 0" pads_end="0, 0" auto_pad="same_upper" />
			<input>
				<port id="0" precision="FP32">
					<dim>1</dim>
					<dim>48</dim>
					<dim>-1</dim>
					<dim>-1</dim>
				</port>
				<port id="1" precision="FP32">
					<dim>288</dim>
					<dim>48</dim>
					<dim>1</dim>
					<dim>1</dim>
				</port>
			</input>
			<output>
				<port id="2" precision="FP32">
					<dim>1</dim>
					<dim>288</dim>
					<dim>-1</dim>
					<dim>-1</dim>
				</port>
			</output>
		</layer>
		<layer id="157" name="Transpose_22184" type="Const" version="opset1">
			<data element_type="f16" shape="288" offset="146978" size="576" />
			<output>
				<port id="0" precision="FP16">
					<dim>288</dim>
				</port>
			</output>
		</layer>
		<layer id="158" name="Transpose_22181" type="Convert" version="opset1">
			<data destination_type="f32" />
			<input>
				<port id="0" precision="FP16">
					<dim>288</dim>
				</port>
			</input>
			<output>
				<port id="1" precision="FP32" names="center_net_mobile_net_v2fpn_feature_extractor/model_1/model/block_4_expand_BN/FusedBatchNormV3_dequantize">
					<dim>288</dim>
				</port>
			</output>
		</layer>
		<layer id="159" name="Constant_22182" type="Const" version="opset1">
			<data element_type="i64" shape="3" offset="2762" size="24" />
			<output>
				<port id="0" precision="I64">
					<dim>3</dim>
				</port>
			</output>
		</layer>
		<layer id="160" name="Transpose_19366" type="Unsqueeze" version="opset1">
			<input>
				<port id="0" precision="FP32">
					<dim>288</dim>
				</port>
				<port id="1" precision="I64">
					<dim>3</dim>
				</port>
			</input>
			<output>
				<port id="2" precision="FP32">
					<dim>1</dim>
					<dim>288</dim>
					<dim>1</dim>
					<dim>1</dim>
				</port>
			</output>
		</layer>
		<layer id="161" name="Transpose_19368" type="Add" version="opset1">
			<data auto_broadcast="numpy" />
			<input>
				<port id="0" precision="FP32">
					<dim>1</dim>
					<dim>288</dim>
					<dim>-1</dim>
					<dim>-1</dim>
				</port>
				<port id="1" precision="FP32">
					<dim>1</dim>
					<dim>288</dim>
					<dim>1</dim>
					<dim>1</dim>
				</port>
			</input>
			<output>
				<port id="2" precision="FP32">
					<dim>1</dim>
					<dim>288</dim>
					<dim>-1</dim>
					<dim>-1</dim>
				</port>
			</output>
		</layer>
		<layer id="162" name="Transpose_19370" type="Clamp" version="opset1">
			<data min="0" max="6" />
			<input>
				<port id="0" precision="FP32">
					<dim>1</dim>
					<dim>288</dim>
					<dim>-1</dim>
					<dim>-1</dim>
				</port>
			</input>
			<output>
				<port id="1" precision="FP32">
					<dim>1</dim>
					<dim>288</dim>
					<dim>-1</dim>
					<dim>-1</dim>
				</port>
			</output>
		</layer>
		<layer id="163" name="center_net_mobile_net_v2fpn_feature_extractor/model_1/model/block_4_depthwise_BN/FusedBatchNormV3;center_net_mobile_net_v2fpn_feature_extractor/model_1/model/block_4_depthwise/depthwise;center_net_mobile_net_v2fpn_feature_extractor/model_1/model/block_6_depthwise/depthwise" type="Const" version="opset1">
			<data element_type="f16" shape="1, 3, 3, 288" offset="147554" size="5184" />
			<output>
				<port id="0" precision="FP16" names="center_net_mobile_net_v2fpn_feature_extractor/model_1/model/block_4_depthwise_BN/FusedBatchNormV3;center_net_mobile_net_v2fpn_feature_extractor/model_1/model/block_4_depthwise/depthwise;center_net_mobile_net_v2fpn_feature_extractor/model_1/model/block_6_depthwise/depthwise">
					<dim>1</dim>
					<dim>3</dim>
					<dim>3</dim>
					<dim>288</dim>
				</port>
			</output>
		</layer>
		<layer id="164" name="52" type="Convert" version="opset1">
			<data destination_type="f32" />
			<input>
				<port id="0" precision="FP16">
					<dim>1</dim>
					<dim>3</dim>
					<dim>3</dim>
					<dim>288</dim>
				</port>
			</input>
			<output>
				<port id="1" precision="FP32" names="center_net_mobile_net_v2fpn_feature_extractor/model_1/model/block_4_depthwise_BN/FusedBatchNormV3;center_net_mobile_net_v2fpn_feature_extractor/model_1/model/block_4_depthwise/depthwise;center_net_mobile_net_v2fpn_feature_extractor/model_1/model/block_6_depthwise/depthwise_dequantize">
					<dim>1</dim>
					<dim>3</dim>
					<dim>3</dim>
					<dim>288</dim>
				</port>
			</output>
		</layer>
		<layer id="165" name="Constant_28985" type="Const" version="opset1">
			<data element_type="i64" shape="4" offset="152738" size="32" />
			<rt_info>
				<attribute name="precise" version="0" />
			</rt_info>
			<output>
				<port id="0" precision="I64">
					<dim>4</dim>
				</port>
			</output>
		</layer>
		<layer id="166" name="Transpose_15519" type="Reshape" version="opset1">
			<data special_zero="true" />
			<input>
				<port id="0" precision="FP32">
					<dim>1</dim>
					<dim>3</dim>
					<dim>3</dim>
					<dim>288</dim>
				</port>
				<port id="1" precision="I64">
					<dim>4</dim>
				</port>
			</input>
			<output>
				<port id="2" precision="FP32">
					<dim>3</dim>
					<dim>3</dim>
					<dim>288</dim>
					<dim>1</dim>
				</port>
			</output>
		</layer>
		<layer id="167" name="Constant_15520" type="Const" version="opset1">
			<data element_type="i64" shape="4" offset="3682" size="32" />
			<rt_info>
				<attribute name="precise" version="0" />
			</rt_info>
			<output>
				<port id="0" precision="I64">
					<dim>4</dim>
				</port>
			</output>
		</layer>
		<layer id="168" name="Reshape_15521" type="Reshape" version="opset1">
			<data special_zero="true" />
			<input>
				<port id="0" precision="FP32">
					<dim>3</dim>
					<dim>3</dim>
					<dim>288</dim>
					<dim>1</dim>
				</port>
				<port id="1" precision="I64">
					<dim>4</dim>
				</port>
			</input>
			<output>
				<port id="2" precision="FP32">
					<dim>3</dim>
					<dim>3</dim>
					<dim>288</dim>
					<dim>1</dim>
				</port>
			</output>
		</layer>
		<layer id="169" name="Constant_15526" type="Const" version="opset1">
			<data element_type="i64" shape="1" offset="3714" size="8" />
			<output>
				<port id="0" precision="I64">
					<dim>1</dim>
				</port>
			</output>
		</layer>
		<layer id="170" name="Transpose_19373" type="Unsqueeze" version="opset1">
			<input>
				<port id="0" precision="FP32">
					<dim>3</dim>
					<dim>3</dim>
					<dim>288</dim>
					<dim>1</dim>
				</port>
				<port id="1" precision="I64">
					<dim>1</dim>
				</port>
			</input>
			<output>
				<port id="2" precision="FP32">
					<dim>3</dim>
					<dim>3</dim>
					<dim>288</dim>
					<dim>1</dim>
					<dim>1</dim>
				</port>
			</output>
		</layer>
		<layer id="171" name="Constant_19374" type="Const" version="opset1">
			<data element_type="i64" shape="5" offset="3722" size="40" />
			<output>
				<port id="0" precision="I64">
					<dim>5</dim>
				</port>
			</output>
		</layer>
		<layer id="172" name="Transpose_15529" type="Transpose" version="opset1">
			<input>
				<port id="0" precision="FP32">
					<dim>3</dim>
					<dim>3</dim>
					<dim>288</dim>
					<dim>1</dim>
					<dim>1</dim>
				</port>
				<port id="1" precision="I64">
					<dim>5</dim>
				</port>
			</input>
			<output>
				<port id="2" precision="FP32">
					<dim>288</dim>
					<dim>1</dim>
					<dim>1</dim>
					<dim>3</dim>
					<dim>3</dim>
				</port>
			</output>
		</layer>
		<layer id="173" name="GroupConvolution_15530" type="GroupConvolution" version="opset1">
			<data strides="1, 1" pads_begin="0, 0" pads_end="0, 0" dilations="1, 1" auto_pad="same_upper" />
			<input>
				<port id="0" precision="FP32">
					<dim>1</dim>
					<dim>288</dim>
					<dim>-1</dim>
					<dim>-1</dim>
				</port>
				<port id="1" precision="FP32">
					<dim>288</dim>
					<dim>1</dim>
					<dim>1</dim>
					<dim>3</dim>
					<dim>3</dim>
				</port>
			</input>
			<output>
				<port id="2" precision="FP32">
					<dim>1</dim>
					<dim>288</dim>
					<dim>-1</dim>
					<dim>-1</dim>
				</port>
			</output>
		</layer>
		<layer id="174" name="Transpose_22190" type="Const" version="opset1">
			<data element_type="f16" shape="288" offset="152770" size="576" />
			<output>
				<port id="0" precision="FP16">
					<dim>288</dim>
				</port>
			</output>
		</layer>
		<layer id="175" name="Transpose_22187" type="Convert" version="opset1">
			<data destination_type="f32" />
			<input>
				<port id="0" precision="FP16">
					<dim>288</dim>
				</port>
			</input>
			<output>
				<port id="1" precision="FP32" names="center_net_mobile_net_v2fpn_feature_extractor/model_1/model/block_4_depthwise_BN/FusedBatchNormV3_dequantize">
					<dim>288</dim>
				</port>
			</output>
		</layer>
		<layer id="176" name="Constant_22188" type="Const" version="opset1">
			<data element_type="i64" shape="3" offset="2762" size="24" />
			<output>
				<port id="0" precision="I64">
					<dim>3</dim>
				</port>
			</output>
		</layer>
		<layer id="177" name="Transpose_19379" type="Unsqueeze" version="opset1">
			<input>
				<port id="0" precision="FP32">
					<dim>288</dim>
				</port>
				<port id="1" precision="I64">
					<dim>3</dim>
				</port>
			</input>
			<output>
				<port id="2" precision="FP32">
					<dim>1</dim>
					<dim>288</dim>
					<dim>1</dim>
					<dim>1</dim>
				</port>
			</output>
		</layer>
		<layer id="178" name="Transpose_19381" type="Add" version="opset1">
			<data auto_broadcast="numpy" />
			<input>
				<port id="0" precision="FP32">
					<dim>1</dim>
					<dim>288</dim>
					<dim>-1</dim>
					<dim>-1</dim>
				</port>
				<port id="1" precision="FP32">
					<dim>1</dim>
					<dim>288</dim>
					<dim>1</dim>
					<dim>1</dim>
				</port>
			</input>
			<output>
				<port id="2" precision="FP32">
					<dim>1</dim>
					<dim>288</dim>
					<dim>-1</dim>
					<dim>-1</dim>
				</port>
			</output>
		</layer>
		<layer id="179" name="Transpose_19383" type="Clamp" version="opset1">
			<data min="0" max="6" />
			<input>
				<port id="0" precision="FP32">
					<dim>1</dim>
					<dim>288</dim>
					<dim>-1</dim>
					<dim>-1</dim>
				</port>
			</input>
			<output>
				<port id="1" precision="FP32">
					<dim>1</dim>
					<dim>288</dim>
					<dim>-1</dim>
					<dim>-1</dim>
				</port>
			</output>
		</layer>
		<layer id="180" name="Transpose_22192" type="Const" version="opset1">
			<data element_type="f16" shape="48, 288, 1, 1" offset="153346" size="27648" />
			<output>
				<port id="0" precision="FP16">
					<dim>48</dim>
					<dim>288</dim>
					<dim>1</dim>
					<dim>1</dim>
				</port>
			</output>
		</layer>
		<layer id="181" name="Transpose_15542" type="Convert" version="opset1">
			<data destination_type="f32" />
			<input>
				<port id="0" precision="FP16">
					<dim>48</dim>
					<dim>288</dim>
					<dim>1</dim>
					<dim>1</dim>
				</port>
			</input>
			<output>
				<port id="1" precision="FP32" names="center_net_mobile_net_v2fpn_feature_extractor/model_1/model/block_4_project/Conv2D_dequantize">
					<dim>48</dim>
					<dim>288</dim>
					<dim>1</dim>
					<dim>1</dim>
				</port>
			</output>
		</layer>
		<layer id="182" name="Convolution_15543" type="Convolution" version="opset1">
			<data strides="1, 1" dilations="1, 1" pads_begin="0, 0" pads_end="0, 0" auto_pad="same_upper" />
			<input>
				<port id="0" precision="FP32">
					<dim>1</dim>
					<dim>288</dim>
					<dim>-1</dim>
					<dim>-1</dim>
				</port>
				<port id="1" precision="FP32">
					<dim>48</dim>
					<dim>288</dim>
					<dim>1</dim>
					<dim>1</dim>
				</port>
			</input>
			<output>
				<port id="2" precision="FP32">
					<dim>1</dim>
					<dim>48</dim>
					<dim>-1</dim>
					<dim>-1</dim>
				</port>
			</output>
		</layer>
		<layer id="183" name="Transpose_22198" type="Const" version="opset1">
			<data element_type="f16" shape="48" offset="180994" size="96" />
			<output>
				<port id="0" precision="FP16">
					<dim>48</dim>
				</port>
			</output>
		</layer>
		<layer id="184" name="Transpose_22195" type="Convert" version="opset1">
			<data destination_type="f32" />
			<input>
				<port id="0" precision="FP16">
					<dim>48</dim>
				</port>
			</input>
			<output>
				<port id="1" precision="FP32" names="center_net_mobile_net_v2fpn_feature_extractor/model_1/model/block_4_project_BN/FusedBatchNormV3;center_net_mobile_net_v2fpn_feature_extractor/model_1/model/block_5_project/Conv2D;center_net_mobile_net_v2fpn_feature_extractor/model_1/model/block_4_project/Conv2D_dequantize">
					<dim>48</dim>
				</port>
			</output>
		</layer>
		<layer id="185" name="Constant_22196" type="Const" version="opset1">
			<data element_type="i64" shape="3" offset="2762" size="24" />
			<output>
				<port id="0" precision="I64">
					<dim>3</dim>
				</port>
			</output>
		</layer>
		<layer id="186" name="Transpose_19387" type="Unsqueeze" version="opset1">
			<input>
				<port id="0" precision="FP32">
					<dim>48</dim>
				</port>
				<port id="1" precision="I64">
					<dim>3</dim>
				</port>
			</input>
			<output>
				<port id="2" precision="FP32">
					<dim>1</dim>
					<dim>48</dim>
					<dim>1</dim>
					<dim>1</dim>
				</port>
			</output>
		</layer>
		<layer id="187" name="Transpose_19389" type="Add" version="opset1">
			<data auto_broadcast="numpy" />
			<input>
				<port id="0" precision="FP32">
					<dim>1</dim>
					<dim>48</dim>
					<dim>-1</dim>
					<dim>-1</dim>
				</port>
				<port id="1" precision="FP32">
					<dim>1</dim>
					<dim>48</dim>
					<dim>1</dim>
					<dim>1</dim>
				</port>
			</input>
			<output>
				<port id="2" precision="FP32">
					<dim>1</dim>
					<dim>48</dim>
					<dim>-1</dim>
					<dim>-1</dim>
				</port>
			</output>
		</layer>
		<layer id="188" name="Transpose_19393" type="Add" version="opset1">
			<data auto_broadcast="numpy" />
			<input>
				<port id="0" precision="FP32">
					<dim>1</dim>
					<dim>48</dim>
					<dim>-1</dim>
					<dim>-1</dim>
				</port>
				<port id="1" precision="FP32">
					<dim>1</dim>
					<dim>48</dim>
					<dim>-1</dim>
					<dim>-1</dim>
				</port>
			</input>
			<output>
				<port id="2" precision="FP32">
					<dim>1</dim>
					<dim>48</dim>
					<dim>-1</dim>
					<dim>-1</dim>
				</port>
			</output>
		</layer>
		<layer id="189" name="Transpose_22200" type="Const" version="opset1">
			<data element_type="f16" shape="288, 48, 1, 1" offset="181090" size="27648" />
			<output>
				<port id="0" precision="FP16">
					<dim>288</dim>
					<dim>48</dim>
					<dim>1</dim>
					<dim>1</dim>
				</port>
			</output>
		</layer>
		<layer id="190" name="Transpose_15555" type="Convert" version="opset1">
			<data destination_type="f32" />
			<input>
				<port id="0" precision="FP16">
					<dim>288</dim>
					<dim>48</dim>
					<dim>1</dim>
					<dim>1</dim>
				</port>
			</input>
			<output>
				<port id="1" precision="FP32" names="center_net_mobile_net_v2fpn_feature_extractor/model_1/model/block_5_expand/Conv2D_dequantize">
					<dim>288</dim>
					<dim>48</dim>
					<dim>1</dim>
					<dim>1</dim>
				</port>
			</output>
		</layer>
		<layer id="191" name="Convolution_15556" type="Convolution" version="opset1">
			<data strides="1, 1" dilations="1, 1" pads_begin="0, 0" pads_end="0, 0" auto_pad="same_upper" />
			<input>
				<port id="0" precision="FP32">
					<dim>1</dim>
					<dim>48</dim>
					<dim>-1</dim>
					<dim>-1</dim>
				</port>
				<port id="1" precision="FP32">
					<dim>288</dim>
					<dim>48</dim>
					<dim>1</dim>
					<dim>1</dim>
				</port>
			</input>
			<output>
				<port id="2" precision="FP32">
					<dim>1</dim>
					<dim>288</dim>
					<dim>-1</dim>
					<dim>-1</dim>
				</port>
			</output>
		</layer>
		<layer id="192" name="Transpose_22206" type="Const" version="opset1">
			<data element_type="f16" shape="288" offset="208738" size="576" />
			<output>
				<port id="0" precision="FP16">
					<dim>288</dim>
				</port>
			</output>
		</layer>
		<layer id="193" name="Transpose_22203" type="Convert" version="opset1">
			<data destination_type="f32" />
			<input>
				<port id="0" precision="FP16">
					<dim>288</dim>
				</port>
			</input>
			<output>
				<port id="1" precision="FP32" names="center_net_mobile_net_v2fpn_feature_extractor/model_1/model/block_5_expand_BN/FusedBatchNormV3_dequantize">
					<dim>288</dim>
				</port>
			</output>
		</layer>
		<layer id="194" name="Constant_22204" type="Const" version="opset1">
			<data element_type="i64" shape="3" offset="2762" size="24" />
			<output>
				<port id="0" precision="I64">
					<dim>3</dim>
				</port>
			</output>
		</layer>
		<layer id="195" name="Transpose_19397" type="Unsqueeze" version="opset1">
			<input>
				<port id="0" precision="FP32">
					<dim>288</dim>
				</port>
				<port id="1" precision="I64">
					<dim>3</dim>
				</port>
			</input>
			<output>
				<port id="2" precision="FP32">
					<dim>1</dim>
					<dim>288</dim>
					<dim>1</dim>
					<dim>1</dim>
				</port>
			</output>
		</layer>
		<layer id="196" name="Transpose_19399" type="Add" version="opset1">
			<data auto_broadcast="numpy" />
			<input>
				<port id="0" precision="FP32">
					<dim>1</dim>
					<dim>288</dim>
					<dim>-1</dim>
					<dim>-1</dim>
				</port>
				<port id="1" precision="FP32">
					<dim>1</dim>
					<dim>288</dim>
					<dim>1</dim>
					<dim>1</dim>
				</port>
			</input>
			<output>
				<port id="2" precision="FP32">
					<dim>1</dim>
					<dim>288</dim>
					<dim>-1</dim>
					<dim>-1</dim>
				</port>
			</output>
		</layer>
		<layer id="197" name="Transpose_19401" type="Clamp" version="opset1">
			<data min="0" max="6" />
			<input>
				<port id="0" precision="FP32">
					<dim>1</dim>
					<dim>288</dim>
					<dim>-1</dim>
					<dim>-1</dim>
				</port>
			</input>
			<output>
				<port id="1" precision="FP32">
					<dim>1</dim>
					<dim>288</dim>
					<dim>-1</dim>
					<dim>-1</dim>
				</port>
			</output>
		</layer>
		<layer id="198" name="center_net_mobile_net_v2fpn_feature_extractor/model_1/model/block_5_depthwise_BN/FusedBatchNormV3;center_net_mobile_net_v2fpn_feature_extractor/model_1/model/block_5_depthwise/depthwise;center_net_mobile_net_v2fpn_feature_extractor/model_1/model/block_6_depthwise/depthwise" type="Const" version="opset1">
			<data element_type="f16" shape="1, 3, 3, 288" offset="209314" size="5184" />
			<output>
				<port id="0" precision="FP16" names="center_net_mobile_net_v2fpn_feature_extractor/model_1/model/block_5_depthwise_BN/FusedBatchNormV3;center_net_mobile_net_v2fpn_feature_extractor/model_1/model/block_5_depthwise/depthwise;center_net_mobile_net_v2fpn_feature_extractor/model_1/model/block_6_depthwise/depthwise">
					<dim>1</dim>
					<dim>3</dim>
					<dim>3</dim>
					<dim>288</dim>
				</port>
			</output>
		</layer>
		<layer id="199" name="63" type="Convert" version="opset1">
			<data destination_type="f32" />
			<input>
				<port id="0" precision="FP16">
					<dim>1</dim>
					<dim>3</dim>
					<dim>3</dim>
					<dim>288</dim>
				</port>
			</input>
			<output>
				<port id="1" precision="FP32" names="center_net_mobile_net_v2fpn_feature_extractor/model_1/model/block_5_depthwise_BN/FusedBatchNormV3;center_net_mobile_net_v2fpn_feature_extractor/model_1/model/block_5_depthwise/depthwise;center_net_mobile_net_v2fpn_feature_extractor/model_1/model/block_6_depthwise/depthwise_dequantize">
					<dim>1</dim>
					<dim>3</dim>
					<dim>3</dim>
					<dim>288</dim>
				</port>
			</output>
		</layer>
		<layer id="200" name="Constant_28987" type="Const" version="opset1">
			<data element_type="i64" shape="4" offset="152738" size="32" />
			<rt_info>
				<attribute name="precise" version="0" />
			</rt_info>
			<output>
				<port id="0" precision="I64">
					<dim>4</dim>
				</port>
			</output>
		</layer>
		<layer id="201" name="Transpose_15564" type="Reshape" version="opset1">
			<data special_zero="true" />
			<input>
				<port id="0" precision="FP32">
					<dim>1</dim>
					<dim>3</dim>
					<dim>3</dim>
					<dim>288</dim>
				</port>
				<port id="1" precision="I64">
					<dim>4</dim>
				</port>
			</input>
			<output>
				<port id="2" precision="FP32">
					<dim>3</dim>
					<dim>3</dim>
					<dim>288</dim>
					<dim>1</dim>
				</port>
			</output>
		</layer>
		<layer id="202" name="Constant_15565" type="Const" version="opset1">
			<data element_type="i64" shape="4" offset="3682" size="32" />
			<rt_info>
				<attribute name="precise" version="0" />
			</rt_info>
			<output>
				<port id="0" precision="I64">
					<dim>4</dim>
				</port>
			</output>
		</layer>
		<layer id="203" name="Reshape_15566" type="Reshape" version="opset1">
			<data special_zero="true" />
			<input>
				<port id="0" precision="FP32">
					<dim>3</dim>
					<dim>3</dim>
					<dim>288</dim>
					<dim>1</dim>
				</port>
				<port id="1" precision="I64">
					<dim>4</dim>
				</port>
			</input>
			<output>
				<port id="2" precision="FP32">
					<dim>3</dim>
					<dim>3</dim>
					<dim>288</dim>
					<dim>1</dim>
				</port>
			</output>
		</layer>
		<layer id="204" name="Constant_15571" type="Const" version="opset1">
			<data element_type="i64" shape="1" offset="3714" size="8" />
			<output>
				<port id="0" precision="I64">
					<dim>1</dim>
				</port>
			</output>
		</layer>
		<layer id="205" name="Transpose_19404" type="Unsqueeze" version="opset1">
			<input>
				<port id="0" precision="FP32">
					<dim>3</dim>
					<dim>3</dim>
					<dim>288</dim>
					<dim>1</dim>
				</port>
				<port id="1" precision="I64">
					<dim>1</dim>
				</port>
			</input>
			<output>
				<port id="2" precision="FP32">
					<dim>3</dim>
					<dim>3</dim>
					<dim>288</dim>
					<dim>1</dim>
					<dim>1</dim>
				</port>
			</output>
		</layer>
		<layer id="206" name="Constant_19405" type="Const" version="opset1">
			<data element_type="i64" shape="5" offset="3722" size="40" />
			<output>
				<port id="0" precision="I64">
					<dim>5</dim>
				</port>
			</output>
		</layer>
		<layer id="207" name="Transpose_15574" type="Transpose" version="opset1">
			<input>
				<port id="0" precision="FP32">
					<dim>3</dim>
					<dim>3</dim>
					<dim>288</dim>
					<dim>1</dim>
					<dim>1</dim>
				</port>
				<port id="1" precision="I64">
					<dim>5</dim>
				</port>
			</input>
			<output>
				<port id="2" precision="FP32">
					<dim>288</dim>
					<dim>1</dim>
					<dim>1</dim>
					<dim>3</dim>
					<dim>3</dim>
				</port>
			</output>
		</layer>
		<layer id="208" name="GroupConvolution_15575" type="GroupConvolution" version="opset1">
			<data strides="1, 1" pads_begin="0, 0" pads_end="0, 0" dilations="1, 1" auto_pad="same_upper" />
			<input>
				<port id="0" precision="FP32">
					<dim>1</dim>
					<dim>288</dim>
					<dim>-1</dim>
					<dim>-1</dim>
				</port>
				<port id="1" precision="FP32">
					<dim>288</dim>
					<dim>1</dim>
					<dim>1</dim>
					<dim>3</dim>
					<dim>3</dim>
				</port>
			</input>
			<output>
				<port id="2" precision="FP32">
					<dim>1</dim>
					<dim>288</dim>
					<dim>-1</dim>
					<dim>-1</dim>
				</port>
			</output>
		</layer>
		<layer id="209" name="Transpose_22212" type="Const" version="opset1">
			<data element_type="f16" shape="288" offset="214498" size="576" />
			<output>
				<port id="0" precision="FP16">
					<dim>288</dim>
				</port>
			</output>
		</layer>
		<layer id="210" name="Transpose_22209" type="Convert" version="opset1">
			<data destination_type="f32" />
			<input>
				<port id="0" precision="FP16">
					<dim>288</dim>
				</port>
			</input>
			<output>
				<port id="1" precision="FP32" names="center_net_mobile_net_v2fpn_feature_extractor/model_1/model/block_5_depthwise_BN/FusedBatchNormV3_dequantize">
					<dim>288</dim>
				</port>
			</output>
		</layer>
		<layer id="211" name="Constant_22210" type="Const" version="opset1">
			<data element_type="i64" shape="3" offset="2762" size="24" />
			<output>
				<port id="0" precision="I64">
					<dim>3</dim>
				</port>
			</output>
		</layer>
		<layer id="212" name="Transpose_19410" type="Unsqueeze" version="opset1">
			<input>
				<port id="0" precision="FP32">
					<dim>288</dim>
				</port>
				<port id="1" precision="I64">
					<dim>3</dim>
				</port>
			</input>
			<output>
				<port id="2" precision="FP32">
					<dim>1</dim>
					<dim>288</dim>
					<dim>1</dim>
					<dim>1</dim>
				</port>
			</output>
		</layer>
		<layer id="213" name="Transpose_19412" type="Add" version="opset1">
			<data auto_broadcast="numpy" />
			<input>
				<port id="0" precision="FP32">
					<dim>1</dim>
					<dim>288</dim>
					<dim>-1</dim>
					<dim>-1</dim>
				</port>
				<port id="1" precision="FP32">
					<dim>1</dim>
					<dim>288</dim>
					<dim>1</dim>
					<dim>1</dim>
				</port>
			</input>
			<output>
				<port id="2" precision="FP32">
					<dim>1</dim>
					<dim>288</dim>
					<dim>-1</dim>
					<dim>-1</dim>
				</port>
			</output>
		</layer>
		<layer id="214" name="Transpose_19414" type="Clamp" version="opset1">
			<data min="0" max="6" />
			<input>
				<port id="0" precision="FP32">
					<dim>1</dim>
					<dim>288</dim>
					<dim>-1</dim>
					<dim>-1</dim>
				</port>
			</input>
			<output>
				<port id="1" precision="FP32">
					<dim>1</dim>
					<dim>288</dim>
					<dim>-1</dim>
					<dim>-1</dim>
				</port>
			</output>
		</layer>
		<layer id="215" name="Transpose_22214" type="Const" version="opset1">
			<data element_type="f16" shape="48, 288, 1, 1" offset="215074" size="27648" />
			<output>
				<port id="0" precision="FP16">
					<dim>48</dim>
					<dim>288</dim>
					<dim>1</dim>
					<dim>1</dim>
				</port>
			</output>
		</layer>
		<layer id="216" name="Transpose_15587" type="Convert" version="opset1">
			<data destination_type="f32" />
			<input>
				<port id="0" precision="FP16">
					<dim>48</dim>
					<dim>288</dim>
					<dim>1</dim>
					<dim>1</dim>
				</port>
			</input>
			<output>
				<port id="1" precision="FP32" names="center_net_mobile_net_v2fpn_feature_extractor/model_1/model/block_5_project/Conv2D_dequantize">
					<dim>48</dim>
					<dim>288</dim>
					<dim>1</dim>
					<dim>1</dim>
				</port>
			</output>
		</layer>
		<layer id="217" name="Convolution_15588" type="Convolution" version="opset1">
			<data strides="1, 1" dilations="1, 1" pads_begin="0, 0" pads_end="0, 0" auto_pad="same_upper" />
			<input>
				<port id="0" precision="FP32">
					<dim>1</dim>
					<dim>288</dim>
					<dim>-1</dim>
					<dim>-1</dim>
				</port>
				<port id="1" precision="FP32">
					<dim>48</dim>
					<dim>288</dim>
					<dim>1</dim>
					<dim>1</dim>
				</port>
			</input>
			<output>
				<port id="2" precision="FP32">
					<dim>1</dim>
					<dim>48</dim>
					<dim>-1</dim>
					<dim>-1</dim>
				</port>
			</output>
		</layer>
		<layer id="218" name="Transpose_22220" type="Const" version="opset1">
			<data element_type="f16" shape="48" offset="242722" size="96" />
			<output>
				<port id="0" precision="FP16">
					<dim>48</dim>
				</port>
			</output>
		</layer>
		<layer id="219" name="Transpose_22217" type="Convert" version="opset1">
			<data destination_type="f32" />
			<input>
				<port id="0" precision="FP16">
					<dim>48</dim>
				</port>
			</input>
			<output>
				<port id="1" precision="FP32" names="center_net_mobile_net_v2fpn_feature_extractor/model_1/model/block_5_project_BN/FusedBatchNormV3;center_net_mobile_net_v2fpn_feature_extractor/model_1/model/block_5_project/Conv2D_dequantize">
					<dim>48</dim>
				</port>
			</output>
		</layer>
		<layer id="220" name="Constant_22218" type="Const" version="opset1">
			<data element_type="i64" shape="3" offset="2762" size="24" />
			<output>
				<port id="0" precision="I64">
					<dim>3</dim>
				</port>
			</output>
		</layer>
		<layer id="221" name="Transpose_19418" type="Unsqueeze" version="opset1">
			<input>
				<port id="0" precision="FP32">
					<dim>48</dim>
				</port>
				<port id="1" precision="I64">
					<dim>3</dim>
				</port>
			</input>
			<output>
				<port id="2" precision="FP32">
					<dim>1</dim>
					<dim>48</dim>
					<dim>1</dim>
					<dim>1</dim>
				</port>
			</output>
		</layer>
		<layer id="222" name="Transpose_19420" type="Add" version="opset1">
			<data auto_broadcast="numpy" />
			<input>
				<port id="0" precision="FP32">
					<dim>1</dim>
					<dim>48</dim>
					<dim>-1</dim>
					<dim>-1</dim>
				</port>
				<port id="1" precision="FP32">
					<dim>1</dim>
					<dim>48</dim>
					<dim>1</dim>
					<dim>1</dim>
				</port>
			</input>
			<output>
				<port id="2" precision="FP32">
					<dim>1</dim>
					<dim>48</dim>
					<dim>-1</dim>
					<dim>-1</dim>
				</port>
			</output>
		</layer>
		<layer id="223" name="Transpose_19424" type="Add" version="opset1">
			<data auto_broadcast="numpy" />
			<input>
				<port id="0" precision="FP32">
					<dim>1</dim>
					<dim>48</dim>
					<dim>-1</dim>
					<dim>-1</dim>
				</port>
				<port id="1" precision="FP32">
					<dim>1</dim>
					<dim>48</dim>
					<dim>-1</dim>
					<dim>-1</dim>
				</port>
			</input>
			<output>
				<port id="2" precision="FP32">
					<dim>1</dim>
					<dim>48</dim>
					<dim>-1</dim>
					<dim>-1</dim>
				</port>
			</output>
		</layer>
		<layer id="224" name="Transpose_22222" type="Const" version="opset1">
			<data element_type="f16" shape="288, 48, 1, 1" offset="242818" size="27648" />
			<output>
				<port id="0" precision="FP16">
					<dim>288</dim>
					<dim>48</dim>
					<dim>1</dim>
					<dim>1</dim>
				</port>
			</output>
		</layer>
		<layer id="225" name="Transpose_15612" type="Convert" version="opset1">
			<data destination_type="f32" />
			<input>
				<port id="0" precision="FP16">
					<dim>288</dim>
					<dim>48</dim>
					<dim>1</dim>
					<dim>1</dim>
				</port>
			</input>
			<output>
				<port id="1" precision="FP32" names="center_net_mobile_net_v2fpn_feature_extractor/model_1/model/block_6_expand/Conv2D_dequantize">
					<dim>288</dim>
					<dim>48</dim>
					<dim>1</dim>
					<dim>1</dim>
				</port>
			</output>
		</layer>
		<layer id="226" name="Convolution_15613" type="Convolution" version="opset1">
			<data strides="1, 1" dilations="1, 1" pads_begin="0, 0" pads_end="0, 0" auto_pad="same_upper" />
			<input>
				<port id="0" precision="FP32">
					<dim>1</dim>
					<dim>48</dim>
					<dim>-1</dim>
					<dim>-1</dim>
				</port>
				<port id="1" precision="FP32">
					<dim>288</dim>
					<dim>48</dim>
					<dim>1</dim>
					<dim>1</dim>
				</port>
			</input>
			<output>
				<port id="2" precision="FP32">
					<dim>1</dim>
					<dim>288</dim>
					<dim>-1</dim>
					<dim>-1</dim>
				</port>
			</output>
		</layer>
		<layer id="227" name="Transpose_22228" type="Const" version="opset1">
			<data element_type="f16" shape="288" offset="270466" size="576" />
			<output>
				<port id="0" precision="FP16">
					<dim>288</dim>
				</port>
			</output>
		</layer>
		<layer id="228" name="Transpose_22225" type="Convert" version="opset1">
			<data destination_type="f32" />
			<input>
				<port id="0" precision="FP16">
					<dim>288</dim>
				</port>
			</input>
			<output>
				<port id="1" precision="FP32" names="center_net_mobile_net_v2fpn_feature_extractor/model_1/model/block_6_expand_BN/FusedBatchNormV3_dequantize">
					<dim>288</dim>
				</port>
			</output>
		</layer>
		<layer id="229" name="Constant_22226" type="Const" version="opset1">
			<data element_type="i64" shape="3" offset="2762" size="24" />
			<output>
				<port id="0" precision="I64">
					<dim>3</dim>
				</port>
			</output>
		</layer>
		<layer id="230" name="Transpose_19428" type="Unsqueeze" version="opset1">
			<input>
				<port id="0" precision="FP32">
					<dim>288</dim>
				</port>
				<port id="1" precision="I64">
					<dim>3</dim>
				</port>
			</input>
			<output>
				<port id="2" precision="FP32">
					<dim>1</dim>
					<dim>288</dim>
					<dim>1</dim>
					<dim>1</dim>
				</port>
			</output>
		</layer>
		<layer id="231" name="Transpose_19430" type="Add" version="opset1">
			<data auto_broadcast="numpy" />
			<input>
				<port id="0" precision="FP32">
					<dim>1</dim>
					<dim>288</dim>
					<dim>-1</dim>
					<dim>-1</dim>
				</port>
				<port id="1" precision="FP32">
					<dim>1</dim>
					<dim>288</dim>
					<dim>1</dim>
					<dim>1</dim>
				</port>
			</input>
			<output>
				<port id="2" precision="FP32">
					<dim>1</dim>
					<dim>288</dim>
					<dim>-1</dim>
					<dim>-1</dim>
				</port>
			</output>
		</layer>
		<layer id="232" name="Transpose_19432" type="Clamp" version="opset1">
			<data min="0" max="6" />
			<input>
				<port id="0" precision="FP32">
					<dim>1</dim>
					<dim>288</dim>
					<dim>-1</dim>
					<dim>-1</dim>
				</port>
			</input>
			<output>
				<port id="1" precision="FP32">
					<dim>1</dim>
					<dim>288</dim>
					<dim>-1</dim>
					<dim>-1</dim>
				</port>
			</output>
		</layer>
		<layer id="233" name="center_net_mobile_net_v2fpn_feature_extractor/model_1/model/block_6_depthwise_BN/FusedBatchNormV3;center_net_mobile_net_v2fpn_feature_extractor/model_1/model/block_6_depthwise/depthwise" type="Const" version="opset1">
			<data element_type="f16" shape="1, 3, 3, 288" offset="271042" size="5184" />
			<output>
				<port id="0" precision="FP16" names="center_net_mobile_net_v2fpn_feature_extractor/model_1/model/block_6_depthwise_BN/FusedBatchNormV3;center_net_mobile_net_v2fpn_feature_extractor/model_1/model/block_6_depthwise/depthwise">
					<dim>1</dim>
					<dim>3</dim>
					<dim>3</dim>
					<dim>288</dim>
				</port>
			</output>
		</layer>
		<layer id="234" name="76" type="Convert" version="opset1">
			<data destination_type="f32" />
			<input>
				<port id="0" precision="FP16">
					<dim>1</dim>
					<dim>3</dim>
					<dim>3</dim>
					<dim>288</dim>
				</port>
			</input>
			<output>
				<port id="1" precision="FP32" names="center_net_mobile_net_v2fpn_feature_extractor/model_1/model/block_6_depthwise_BN/FusedBatchNormV3;center_net_mobile_net_v2fpn_feature_extractor/model_1/model/block_6_depthwise/depthwise_dequantize">
					<dim>1</dim>
					<dim>3</dim>
					<dim>3</dim>
					<dim>288</dim>
				</port>
			</output>
		</layer>
		<layer id="235" name="Constant_28989" type="Const" version="opset1">
			<data element_type="i64" shape="4" offset="152738" size="32" />
			<rt_info>
				<attribute name="precise" version="0" />
			</rt_info>
			<output>
				<port id="0" precision="I64">
					<dim>4</dim>
				</port>
			</output>
		</layer>
		<layer id="236" name="Transpose_15621" type="Reshape" version="opset1">
			<data special_zero="true" />
			<input>
				<port id="0" precision="FP32">
					<dim>1</dim>
					<dim>3</dim>
					<dim>3</dim>
					<dim>288</dim>
				</port>
				<port id="1" precision="I64">
					<dim>4</dim>
				</port>
			</input>
			<output>
				<port id="2" precision="FP32">
					<dim>3</dim>
					<dim>3</dim>
					<dim>288</dim>
					<dim>1</dim>
				</port>
			</output>
		</layer>
		<layer id="237" name="Constant_15622" type="Const" version="opset1">
			<data element_type="i64" shape="4" offset="3682" size="32" />
			<rt_info>
				<attribute name="precise" version="0" />
			</rt_info>
			<output>
				<port id="0" precision="I64">
					<dim>4</dim>
				</port>
			</output>
		</layer>
		<layer id="238" name="Reshape_15623" type="Reshape" version="opset1">
			<data special_zero="true" />
			<input>
				<port id="0" precision="FP32">
					<dim>3</dim>
					<dim>3</dim>
					<dim>288</dim>
					<dim>1</dim>
				</port>
				<port id="1" precision="I64">
					<dim>4</dim>
				</port>
			</input>
			<output>
				<port id="2" precision="FP32">
					<dim>3</dim>
					<dim>3</dim>
					<dim>288</dim>
					<dim>1</dim>
				</port>
			</output>
		</layer>
		<layer id="239" name="Constant_15628" type="Const" version="opset1">
			<data element_type="i64" shape="1" offset="3714" size="8" />
			<output>
				<port id="0" precision="I64">
					<dim>1</dim>
				</port>
			</output>
		</layer>
		<layer id="240" name="Transpose_19435" type="Unsqueeze" version="opset1">
			<input>
				<port id="0" precision="FP32">
					<dim>3</dim>
					<dim>3</dim>
					<dim>288</dim>
					<dim>1</dim>
				</port>
				<port id="1" precision="I64">
					<dim>1</dim>
				</port>
			</input>
			<output>
				<port id="2" precision="FP32">
					<dim>3</dim>
					<dim>3</dim>
					<dim>288</dim>
					<dim>1</dim>
					<dim>1</dim>
				</port>
			</output>
		</layer>
		<layer id="241" name="Constant_19436" type="Const" version="opset1">
			<data element_type="i64" shape="5" offset="3722" size="40" />
			<output>
				<port id="0" precision="I64">
					<dim>5</dim>
				</port>
			</output>
		</layer>
		<layer id="242" name="Transpose_15631" type="Transpose" version="opset1">
			<input>
				<port id="0" precision="FP32">
					<dim>3</dim>
					<dim>3</dim>
					<dim>288</dim>
					<dim>1</dim>
					<dim>1</dim>
				</port>
				<port id="1" precision="I64">
					<dim>5</dim>
				</port>
			</input>
			<output>
				<port id="2" precision="FP32">
					<dim>288</dim>
					<dim>1</dim>
					<dim>1</dim>
					<dim>3</dim>
					<dim>3</dim>
				</port>
			</output>
		</layer>
		<layer id="243" name="GroupConvolution_15632" type="GroupConvolution" version="opset1">
			<data strides="2, 2" pads_begin="0, 0" pads_end="0, 0" dilations="1, 1" auto_pad="same_upper" />
			<input>
				<port id="0" precision="FP32">
					<dim>1</dim>
					<dim>288</dim>
					<dim>-1</dim>
					<dim>-1</dim>
				</port>
				<port id="1" precision="FP32">
					<dim>288</dim>
					<dim>1</dim>
					<dim>1</dim>
					<dim>3</dim>
					<dim>3</dim>
				</port>
			</input>
			<output>
				<port id="2" precision="FP32">
					<dim>1</dim>
					<dim>288</dim>
					<dim>-1</dim>
					<dim>-1</dim>
				</port>
			</output>
		</layer>
		<layer id="244" name="Transpose_22234" type="Const" version="opset1">
			<data element_type="f16" shape="288" offset="276226" size="576" />
			<output>
				<port id="0" precision="FP16">
					<dim>288</dim>
				</port>
			</output>
		</layer>
		<layer id="245" name="Transpose_22231" type="Convert" version="opset1">
			<data destination_type="f32" />
			<input>
				<port id="0" precision="FP16">
					<dim>288</dim>
				</port>
			</input>
			<output>
				<port id="1" precision="FP32" names="center_net_mobile_net_v2fpn_feature_extractor/model_1/model/block_6_depthwise_BN/FusedBatchNormV3_dequantize">
					<dim>288</dim>
				</port>
			</output>
		</layer>
		<layer id="246" name="Constant_22232" type="Const" version="opset1">
			<data element_type="i64" shape="3" offset="2762" size="24" />
			<output>
				<port id="0" precision="I64">
					<dim>3</dim>
				</port>
			</output>
		</layer>
		<layer id="247" name="Transpose_19441" type="Unsqueeze" version="opset1">
			<input>
				<port id="0" precision="FP32">
					<dim>288</dim>
				</port>
				<port id="1" precision="I64">
					<dim>3</dim>
				</port>
			</input>
			<output>
				<port id="2" precision="FP32">
					<dim>1</dim>
					<dim>288</dim>
					<dim>1</dim>
					<dim>1</dim>
				</port>
			</output>
		</layer>
		<layer id="248" name="Transpose_19443" type="Add" version="opset1">
			<data auto_broadcast="numpy" />
			<input>
				<port id="0" precision="FP32">
					<dim>1</dim>
					<dim>288</dim>
					<dim>-1</dim>
					<dim>-1</dim>
				</port>
				<port id="1" precision="FP32">
					<dim>1</dim>
					<dim>288</dim>
					<dim>1</dim>
					<dim>1</dim>
				</port>
			</input>
			<output>
				<port id="2" precision="FP32">
					<dim>1</dim>
					<dim>288</dim>
					<dim>-1</dim>
					<dim>-1</dim>
				</port>
			</output>
		</layer>
		<layer id="249" name="Transpose_19445" type="Clamp" version="opset1">
			<data min="0" max="6" />
			<input>
				<port id="0" precision="FP32">
					<dim>1</dim>
					<dim>288</dim>
					<dim>-1</dim>
					<dim>-1</dim>
				</port>
			</input>
			<output>
				<port id="1" precision="FP32">
					<dim>1</dim>
					<dim>288</dim>
					<dim>-1</dim>
					<dim>-1</dim>
				</port>
			</output>
		</layer>
		<layer id="250" name="Transpose_22236" type="Const" version="opset1">
			<data element_type="f16" shape="96, 288, 1, 1" offset="276802" size="55296" />
			<output>
				<port id="0" precision="FP16">
					<dim>96</dim>
					<dim>288</dim>
					<dim>1</dim>
					<dim>1</dim>
				</port>
			</output>
		</layer>
		<layer id="251" name="Transpose_15644" type="Convert" version="opset1">
			<data destination_type="f32" />
			<input>
				<port id="0" precision="FP16">
					<dim>96</dim>
					<dim>288</dim>
					<dim>1</dim>
					<dim>1</dim>
				</port>
			</input>
			<output>
				<port id="1" precision="FP32" names="center_net_mobile_net_v2fpn_feature_extractor/model_1/model/block_6_project/Conv2D_dequantize">
					<dim>96</dim>
					<dim>288</dim>
					<dim>1</dim>
					<dim>1</dim>
				</port>
			</output>
		</layer>
		<layer id="252" name="Convolution_15645" type="Convolution" version="opset1">
			<data strides="1, 1" dilations="1, 1" pads_begin="0, 0" pads_end="0, 0" auto_pad="same_upper" />
			<input>
				<port id="0" precision="FP32">
					<dim>1</dim>
					<dim>288</dim>
					<dim>-1</dim>
					<dim>-1</dim>
				</port>
				<port id="1" precision="FP32">
					<dim>96</dim>
					<dim>288</dim>
					<dim>1</dim>
					<dim>1</dim>
				</port>
			</input>
			<output>
				<port id="2" precision="FP32">
					<dim>1</dim>
					<dim>96</dim>
					<dim>-1</dim>
					<dim>-1</dim>
				</port>
			</output>
		</layer>
		<layer id="253" name="Transpose_22242" type="Const" version="opset1">
			<data element_type="f16" shape="96" offset="332098" size="192" />
			<output>
				<port id="0" precision="FP16">
					<dim>96</dim>
				</port>
			</output>
		</layer>
		<layer id="254" name="Transpose_22239" type="Convert" version="opset1">
			<data destination_type="f32" />
			<input>
				<port id="0" precision="FP16">
					<dim>96</dim>
				</port>
			</input>
			<output>
				<port id="1" precision="FP32" names="center_net_mobile_net_v2fpn_feature_extractor/model_1/model/block_6_project_BN/FusedBatchNormV3;kpt_regress_0/separable_conv2d_7/separable_conv2d;center_net_mobile_net_v2fpn_feature_extractor/model_1/model/block_6_project/Conv2D_dequantize">
					<dim>96</dim>
				</port>
			</output>
		</layer>
		<layer id="255" name="Constant_22240" type="Const" version="opset1">
			<data element_type="i64" shape="3" offset="2762" size="24" />
			<output>
				<port id="0" precision="I64">
					<dim>3</dim>
				</port>
			</output>
		</layer>
		<layer id="256" name="Transpose_19449" type="Unsqueeze" version="opset1">
			<input>
				<port id="0" precision="FP32">
					<dim>96</dim>
				</port>
				<port id="1" precision="I64">
					<dim>3</dim>
				</port>
			</input>
			<output>
				<port id="2" precision="FP32">
					<dim>1</dim>
					<dim>96</dim>
					<dim>1</dim>
					<dim>1</dim>
				</port>
			</output>
		</layer>
		<layer id="257" name="Transpose_19451" type="Add" version="opset1">
			<data auto_broadcast="numpy" />
			<input>
				<port id="0" precision="FP32">
					<dim>1</dim>
					<dim>96</dim>
					<dim>-1</dim>
					<dim>-1</dim>
				</port>
				<port id="1" precision="FP32">
					<dim>1</dim>
					<dim>96</dim>
					<dim>1</dim>
					<dim>1</dim>
				</port>
			</input>
			<output>
				<port id="2" precision="FP32">
					<dim>1</dim>
					<dim>96</dim>
					<dim>-1</dim>
					<dim>-1</dim>
				</port>
			</output>
		</layer>
		<layer id="258" name="Transpose_22244" type="Const" version="opset1">
			<data element_type="f16" shape="576, 96, 1, 1" offset="332290" size="110592" />
			<output>
				<port id="0" precision="FP16">
					<dim>576</dim>
					<dim>96</dim>
					<dim>1</dim>
					<dim>1</dim>
				</port>
			</output>
		</layer>
		<layer id="259" name="Transpose_15656" type="Convert" version="opset1">
			<data destination_type="f32" />
			<input>
				<port id="0" precision="FP16">
					<dim>576</dim>
					<dim>96</dim>
					<dim>1</dim>
					<dim>1</dim>
				</port>
			</input>
			<output>
				<port id="1" precision="FP32" names="center_net_mobile_net_v2fpn_feature_extractor/model_1/model/block_7_expand/Conv2D_dequantize">
					<dim>576</dim>
					<dim>96</dim>
					<dim>1</dim>
					<dim>1</dim>
				</port>
			</output>
		</layer>
		<layer id="260" name="Convolution_15657" type="Convolution" version="opset1">
			<data strides="1, 1" dilations="1, 1" pads_begin="0, 0" pads_end="0, 0" auto_pad="same_upper" />
			<input>
				<port id="0" precision="FP32">
					<dim>1</dim>
					<dim>96</dim>
					<dim>-1</dim>
					<dim>-1</dim>
				</port>
				<port id="1" precision="FP32">
					<dim>576</dim>
					<dim>96</dim>
					<dim>1</dim>
					<dim>1</dim>
				</port>
			</input>
			<output>
				<port id="2" precision="FP32">
					<dim>1</dim>
					<dim>576</dim>
					<dim>-1</dim>
					<dim>-1</dim>
				</port>
			</output>
		</layer>
		<layer id="261" name="Transpose_22250" type="Const" version="opset1">
			<data element_type="f16" shape="576" offset="442882" size="1152" />
			<output>
				<port id="0" precision="FP16">
					<dim>576</dim>
				</port>
			</output>
		</layer>
		<layer id="262" name="Transpose_22247" type="Convert" version="opset1">
			<data destination_type="f32" />
			<input>
				<port id="0" precision="FP16">
					<dim>576</dim>
				</port>
			</input>
			<output>
				<port id="1" precision="FP32" names="center_net_mobile_net_v2fpn_feature_extractor/model_1/model/block_7_expand_BN/FusedBatchNormV3_dequantize">
					<dim>576</dim>
				</port>
			</output>
		</layer>
		<layer id="263" name="Constant_22248" type="Const" version="opset1">
			<data element_type="i64" shape="3" offset="2762" size="24" />
			<output>
				<port id="0" precision="I64">
					<dim>3</dim>
				</port>
			</output>
		</layer>
		<layer id="264" name="Transpose_19455" type="Unsqueeze" version="opset1">
			<input>
				<port id="0" precision="FP32">
					<dim>576</dim>
				</port>
				<port id="1" precision="I64">
					<dim>3</dim>
				</port>
			</input>
			<output>
				<port id="2" precision="FP32">
					<dim>1</dim>
					<dim>576</dim>
					<dim>1</dim>
					<dim>1</dim>
				</port>
			</output>
		</layer>
		<layer id="265" name="Transpose_19457" type="Add" version="opset1">
			<data auto_broadcast="numpy" />
			<input>
				<port id="0" precision="FP32">
					<dim>1</dim>
					<dim>576</dim>
					<dim>-1</dim>
					<dim>-1</dim>
				</port>
				<port id="1" precision="FP32">
					<dim>1</dim>
					<dim>576</dim>
					<dim>1</dim>
					<dim>1</dim>
				</port>
			</input>
			<output>
				<port id="2" precision="FP32">
					<dim>1</dim>
					<dim>576</dim>
					<dim>-1</dim>
					<dim>-1</dim>
				</port>
			</output>
		</layer>
		<layer id="266" name="Transpose_19459" type="Clamp" version="opset1">
			<data min="0" max="6" />
			<input>
				<port id="0" precision="FP32">
					<dim>1</dim>
					<dim>576</dim>
					<dim>-1</dim>
					<dim>-1</dim>
				</port>
			</input>
			<output>
				<port id="1" precision="FP32">
					<dim>1</dim>
					<dim>576</dim>
					<dim>-1</dim>
					<dim>-1</dim>
				</port>
			</output>
		</layer>
		<layer id="267" name="center_net_mobile_net_v2fpn_feature_extractor/model_1/model/block_7_depthwise_BN/FusedBatchNormV3;center_net_mobile_net_v2fpn_feature_extractor/model_1/model/block_7_depthwise/depthwise;center_net_mobile_net_v2fpn_feature_extractor/model_1/model/block_10_depthwise/depthwise" type="Const" version="opset1">
			<data element_type="f16" shape="1, 3, 3, 576" offset="444034" size="10368" />
			<output>
				<port id="0" precision="FP16" names="center_net_mobile_net_v2fpn_feature_extractor/model_1/model/block_7_depthwise_BN/FusedBatchNormV3;center_net_mobile_net_v2fpn_feature_extractor/model_1/model/block_7_depthwise/depthwise;center_net_mobile_net_v2fpn_feature_extractor/model_1/model/block_10_depthwise/depthwise">
					<dim>1</dim>
					<dim>3</dim>
					<dim>3</dim>
					<dim>576</dim>
				</port>
			</output>
		</layer>
		<layer id="268" name="85" type="Convert" version="opset1">
			<data destination_type="f32" />
			<input>
				<port id="0" precision="FP16">
					<dim>1</dim>
					<dim>3</dim>
					<dim>3</dim>
					<dim>576</dim>
				</port>
			</input>
			<output>
				<port id="1" precision="FP32" names="center_net_mobile_net_v2fpn_feature_extractor/model_1/model/block_7_depthwise_BN/FusedBatchNormV3;center_net_mobile_net_v2fpn_feature_extractor/model_1/model/block_7_depthwise/depthwise;center_net_mobile_net_v2fpn_feature_extractor/model_1/model/block_10_depthwise/depthwise_dequantize">
					<dim>1</dim>
					<dim>3</dim>
					<dim>3</dim>
					<dim>576</dim>
				</port>
			</output>
		</layer>
		<layer id="269" name="Constant_28991" type="Const" version="opset1">
			<data element_type="i64" shape="4" offset="454402" size="32" />
			<rt_info>
				<attribute name="precise" version="0" />
			</rt_info>
			<output>
				<port id="0" precision="I64">
					<dim>4</dim>
				</port>
			</output>
		</layer>
		<layer id="270" name="Transpose_15665" type="Reshape" version="opset1">
			<data special_zero="true" />
			<input>
				<port id="0" precision="FP32">
					<dim>1</dim>
					<dim>3</dim>
					<dim>3</dim>
					<dim>576</dim>
				</port>
				<port id="1" precision="I64">
					<dim>4</dim>
				</port>
			</input>
			<output>
				<port id="2" precision="FP32">
					<dim>3</dim>
					<dim>3</dim>
					<dim>576</dim>
					<dim>1</dim>
				</port>
			</output>
		</layer>
		<layer id="271" name="Constant_15666" type="Const" version="opset1">
			<data element_type="i64" shape="4" offset="3682" size="32" />
			<rt_info>
				<attribute name="precise" version="0" />
			</rt_info>
			<output>
				<port id="0" precision="I64">
					<dim>4</dim>
				</port>
			</output>
		</layer>
		<layer id="272" name="Reshape_15667" type="Reshape" version="opset1">
			<data special_zero="true" />
			<input>
				<port id="0" precision="FP32">
					<dim>3</dim>
					<dim>3</dim>
					<dim>576</dim>
					<dim>1</dim>
				</port>
				<port id="1" precision="I64">
					<dim>4</dim>
				</port>
			</input>
			<output>
				<port id="2" precision="FP32">
					<dim>3</dim>
					<dim>3</dim>
					<dim>576</dim>
					<dim>1</dim>
				</port>
			</output>
		</layer>
		<layer id="273" name="Constant_15672" type="Const" version="opset1">
			<data element_type="i64" shape="1" offset="3714" size="8" />
			<output>
				<port id="0" precision="I64">
					<dim>1</dim>
				</port>
			</output>
		</layer>
		<layer id="274" name="Transpose_19462" type="Unsqueeze" version="opset1">
			<input>
				<port id="0" precision="FP32">
					<dim>3</dim>
					<dim>3</dim>
					<dim>576</dim>
					<dim>1</dim>
				</port>
				<port id="1" precision="I64">
					<dim>1</dim>
				</port>
			</input>
			<output>
				<port id="2" precision="FP32">
					<dim>3</dim>
					<dim>3</dim>
					<dim>576</dim>
					<dim>1</dim>
					<dim>1</dim>
				</port>
			</output>
		</layer>
		<layer id="275" name="Constant_19463" type="Const" version="opset1">
			<data element_type="i64" shape="5" offset="3722" size="40" />
			<output>
				<port id="0" precision="I64">
					<dim>5</dim>
				</port>
			</output>
		</layer>
		<layer id="276" name="Transpose_15675" type="Transpose" version="opset1">
			<input>
				<port id="0" precision="FP32">
					<dim>3</dim>
					<dim>3</dim>
					<dim>576</dim>
					<dim>1</dim>
					<dim>1</dim>
				</port>
				<port id="1" precision="I64">
					<dim>5</dim>
				</port>
			</input>
			<output>
				<port id="2" precision="FP32">
					<dim>576</dim>
					<dim>1</dim>
					<dim>1</dim>
					<dim>3</dim>
					<dim>3</dim>
				</port>
			</output>
		</layer>
		<layer id="277" name="GroupConvolution_15676" type="GroupConvolution" version="opset1">
			<data strides="1, 1" pads_begin="0, 0" pads_end="0, 0" dilations="1, 1" auto_pad="same_upper" />
			<input>
				<port id="0" precision="FP32">
					<dim>1</dim>
					<dim>576</dim>
					<dim>-1</dim>
					<dim>-1</dim>
				</port>
				<port id="1" precision="FP32">
					<dim>576</dim>
					<dim>1</dim>
					<dim>1</dim>
					<dim>3</dim>
					<dim>3</dim>
				</port>
			</input>
			<output>
				<port id="2" precision="FP32">
					<dim>1</dim>
					<dim>576</dim>
					<dim>-1</dim>
					<dim>-1</dim>
				</port>
			</output>
		</layer>
		<layer id="278" name="Transpose_22256" type="Const" version="opset1">
			<data element_type="f16" shape="576" offset="454434" size="1152" />
			<output>
				<port id="0" precision="FP16">
					<dim>576</dim>
				</port>
			</output>
		</layer>
		<layer id="279" name="Transpose_22253" type="Convert" version="opset1">
			<data destination_type="f32" />
			<input>
				<port id="0" precision="FP16">
					<dim>576</dim>
				</port>
			</input>
			<output>
				<port id="1" precision="FP32" names="center_net_mobile_net_v2fpn_feature_extractor/model_1/model/block_7_depthwise_BN/FusedBatchNormV3_dequantize">
					<dim>576</dim>
				</port>
			</output>
		</layer>
		<layer id="280" name="Constant_22254" type="Const" version="opset1">
			<data element_type="i64" shape="3" offset="2762" size="24" />
			<output>
				<port id="0" precision="I64">
					<dim>3</dim>
				</port>
			</output>
		</layer>
		<layer id="281" name="Transpose_19468" type="Unsqueeze" version="opset1">
			<input>
				<port id="0" precision="FP32">
					<dim>576</dim>
				</port>
				<port id="1" precision="I64">
					<dim>3</dim>
				</port>
			</input>
			<output>
				<port id="2" precision="FP32">
					<dim>1</dim>
					<dim>576</dim>
					<dim>1</dim>
					<dim>1</dim>
				</port>
			</output>
		</layer>
		<layer id="282" name="Transpose_19470" type="Add" version="opset1">
			<data auto_broadcast="numpy" />
			<input>
				<port id="0" precision="FP32">
					<dim>1</dim>
					<dim>576</dim>
					<dim>-1</dim>
					<dim>-1</dim>
				</port>
				<port id="1" precision="FP32">
					<dim>1</dim>
					<dim>576</dim>
					<dim>1</dim>
					<dim>1</dim>
				</port>
			</input>
			<output>
				<port id="2" precision="FP32">
					<dim>1</dim>
					<dim>576</dim>
					<dim>-1</dim>
					<dim>-1</dim>
				</port>
			</output>
		</layer>
		<layer id="283" name="Transpose_19472" type="Clamp" version="opset1">
			<data min="0" max="6" />
			<input>
				<port id="0" precision="FP32">
					<dim>1</dim>
					<dim>576</dim>
					<dim>-1</dim>
					<dim>-1</dim>
				</port>
			</input>
			<output>
				<port id="1" precision="FP32">
					<dim>1</dim>
					<dim>576</dim>
					<dim>-1</dim>
					<dim>-1</dim>
				</port>
			</output>
		</layer>
		<layer id="284" name="Transpose_22258" type="Const" version="opset1">
			<data element_type="f16" shape="96, 576, 1, 1" offset="455586" size="110592" />
			<output>
				<port id="0" precision="FP16">
					<dim>96</dim>
					<dim>576</dim>
					<dim>1</dim>
					<dim>1</dim>
				</port>
			</output>
		</layer>
		<layer id="285" name="Transpose_15688" type="Convert" version="opset1">
			<data destination_type="f32" />
			<input>
				<port id="0" precision="FP16">
					<dim>96</dim>
					<dim>576</dim>
					<dim>1</dim>
					<dim>1</dim>
				</port>
			</input>
			<output>
				<port id="1" precision="FP32" names="center_net_mobile_net_v2fpn_feature_extractor/model_1/model/block_7_project/Conv2D_dequantize">
					<dim>96</dim>
					<dim>576</dim>
					<dim>1</dim>
					<dim>1</dim>
				</port>
			</output>
		</layer>
		<layer id="286" name="Convolution_15689" type="Convolution" version="opset1">
			<data strides="1, 1" dilations="1, 1" pads_begin="0, 0" pads_end="0, 0" auto_pad="same_upper" />
			<input>
				<port id="0" precision="FP32">
					<dim>1</dim>
					<dim>576</dim>
					<dim>-1</dim>
					<dim>-1</dim>
				</port>
				<port id="1" precision="FP32">
					<dim>96</dim>
					<dim>576</dim>
					<dim>1</dim>
					<dim>1</dim>
				</port>
			</input>
			<output>
				<port id="2" precision="FP32">
					<dim>1</dim>
					<dim>96</dim>
					<dim>-1</dim>
					<dim>-1</dim>
				</port>
			</output>
		</layer>
		<layer id="287" name="Transpose_22264" type="Const" version="opset1">
			<data element_type="f16" shape="96" offset="566178" size="192" />
			<output>
				<port id="0" precision="FP16">
					<dim>96</dim>
				</port>
			</output>
		</layer>
		<layer id="288" name="Transpose_22261" type="Convert" version="opset1">
			<data destination_type="f32" />
			<input>
				<port id="0" precision="FP16">
					<dim>96</dim>
				</port>
			</input>
			<output>
				<port id="1" precision="FP32" names="center_net_mobile_net_v2fpn_feature_extractor/model_1/model/block_7_project_BN/FusedBatchNormV3;kpt_regress_0/separable_conv2d_7/separable_conv2d;center_net_mobile_net_v2fpn_feature_extractor/model_1/model/block_7_project/Conv2D_dequantize">
					<dim>96</dim>
				</port>
			</output>
		</layer>
		<layer id="289" name="Constant_22262" type="Const" version="opset1">
			<data element_type="i64" shape="3" offset="2762" size="24" />
			<output>
				<port id="0" precision="I64">
					<dim>3</dim>
				</port>
			</output>
		</layer>
		<layer id="290" name="Transpose_19476" type="Unsqueeze" version="opset1">
			<input>
				<port id="0" precision="FP32">
					<dim>96</dim>
				</port>
				<port id="1" precision="I64">
					<dim>3</dim>
				</port>
			</input>
			<output>
				<port id="2" precision="FP32">
					<dim>1</dim>
					<dim>96</dim>
					<dim>1</dim>
					<dim>1</dim>
				</port>
			</output>
		</layer>
		<layer id="291" name="Transpose_19478" type="Add" version="opset1">
			<data auto_broadcast="numpy" />
			<input>
				<port id="0" precision="FP32">
					<dim>1</dim>
					<dim>96</dim>
					<dim>-1</dim>
					<dim>-1</dim>
				</port>
				<port id="1" precision="FP32">
					<dim>1</dim>
					<dim>96</dim>
					<dim>1</dim>
					<dim>1</dim>
				</port>
			</input>
			<output>
				<port id="2" precision="FP32">
					<dim>1</dim>
					<dim>96</dim>
					<dim>-1</dim>
					<dim>-1</dim>
				</port>
			</output>
		</layer>
		<layer id="292" name="Transpose_19482" type="Add" version="opset1">
			<data auto_broadcast="numpy" />
			<input>
				<port id="0" precision="FP32">
					<dim>1</dim>
					<dim>96</dim>
					<dim>-1</dim>
					<dim>-1</dim>
				</port>
				<port id="1" precision="FP32">
					<dim>1</dim>
					<dim>96</dim>
					<dim>-1</dim>
					<dim>-1</dim>
				</port>
			</input>
			<output>
				<port id="2" precision="FP32">
					<dim>1</dim>
					<dim>96</dim>
					<dim>-1</dim>
					<dim>-1</dim>
				</port>
			</output>
		</layer>
		<layer id="293" name="Transpose_22266" type="Const" version="opset1">
			<data element_type="f16" shape="576, 96, 1, 1" offset="566370" size="110592" />
			<output>
				<port id="0" precision="FP16">
					<dim>576</dim>
					<dim>96</dim>
					<dim>1</dim>
					<dim>1</dim>
				</port>
			</output>
		</layer>
		<layer id="294" name="Transpose_15701" type="Convert" version="opset1">
			<data destination_type="f32" />
			<input>
				<port id="0" precision="FP16">
					<dim>576</dim>
					<dim>96</dim>
					<dim>1</dim>
					<dim>1</dim>
				</port>
			</input>
			<output>
				<port id="1" precision="FP32" names="center_net_mobile_net_v2fpn_feature_extractor/model_1/model/block_8_expand/Conv2D_dequantize">
					<dim>576</dim>
					<dim>96</dim>
					<dim>1</dim>
					<dim>1</dim>
				</port>
			</output>
		</layer>
		<layer id="295" name="Convolution_15702" type="Convolution" version="opset1">
			<data strides="1, 1" dilations="1, 1" pads_begin="0, 0" pads_end="0, 0" auto_pad="same_upper" />
			<input>
				<port id="0" precision="FP32">
					<dim>1</dim>
					<dim>96</dim>
					<dim>-1</dim>
					<dim>-1</dim>
				</port>
				<port id="1" precision="FP32">
					<dim>576</dim>
					<dim>96</dim>
					<dim>1</dim>
					<dim>1</dim>
				</port>
			</input>
			<output>
				<port id="2" precision="FP32">
					<dim>1</dim>
					<dim>576</dim>
					<dim>-1</dim>
					<dim>-1</dim>
				</port>
			</output>
		</layer>
		<layer id="296" name="Transpose_22272" type="Const" version="opset1">
			<data element_type="f16" shape="576" offset="676962" size="1152" />
			<output>
				<port id="0" precision="FP16">
					<dim>576</dim>
				</port>
			</output>
		</layer>
		<layer id="297" name="Transpose_22269" type="Convert" version="opset1">
			<data destination_type="f32" />
			<input>
				<port id="0" precision="FP16">
					<dim>576</dim>
				</port>
			</input>
			<output>
				<port id="1" precision="FP32" names="center_net_mobile_net_v2fpn_feature_extractor/model_1/model/block_8_expand_BN/FusedBatchNormV3_dequantize">
					<dim>576</dim>
				</port>
			</output>
		</layer>
		<layer id="298" name="Constant_22270" type="Const" version="opset1">
			<data element_type="i64" shape="3" offset="2762" size="24" />
			<output>
				<port id="0" precision="I64">
					<dim>3</dim>
				</port>
			</output>
		</layer>
		<layer id="299" name="Transpose_19486" type="Unsqueeze" version="opset1">
			<input>
				<port id="0" precision="FP32">
					<dim>576</dim>
				</port>
				<port id="1" precision="I64">
					<dim>3</dim>
				</port>
			</input>
			<output>
				<port id="2" precision="FP32">
					<dim>1</dim>
					<dim>576</dim>
					<dim>1</dim>
					<dim>1</dim>
				</port>
			</output>
		</layer>
		<layer id="300" name="Transpose_19488" type="Add" version="opset1">
			<data auto_broadcast="numpy" />
			<input>
				<port id="0" precision="FP32">
					<dim>1</dim>
					<dim>576</dim>
					<dim>-1</dim>
					<dim>-1</dim>
				</port>
				<port id="1" precision="FP32">
					<dim>1</dim>
					<dim>576</dim>
					<dim>1</dim>
					<dim>1</dim>
				</port>
			</input>
			<output>
				<port id="2" precision="FP32">
					<dim>1</dim>
					<dim>576</dim>
					<dim>-1</dim>
					<dim>-1</dim>
				</port>
			</output>
		</layer>
		<layer id="301" name="Transpose_19490" type="Clamp" version="opset1">
			<data min="0" max="6" />
			<input>
				<port id="0" precision="FP32">
					<dim>1</dim>
					<dim>576</dim>
					<dim>-1</dim>
					<dim>-1</dim>
				</port>
			</input>
			<output>
				<port id="1" precision="FP32">
					<dim>1</dim>
					<dim>576</dim>
					<dim>-1</dim>
					<dim>-1</dim>
				</port>
			</output>
		</layer>
		<layer id="302" name="center_net_mobile_net_v2fpn_feature_extractor/model_1/model/block_8_depthwise_BN/FusedBatchNormV3;center_net_mobile_net_v2fpn_feature_extractor/model_1/model/block_8_depthwise/depthwise;center_net_mobile_net_v2fpn_feature_extractor/model_1/model/block_10_depthwise/depthwise" type="Const" version="opset1">
			<data element_type="f16" shape="1, 3, 3, 576" offset="678114" size="10368" />
			<output>
				<port id="0" precision="FP16" names="center_net_mobile_net_v2fpn_feature_extractor/model_1/model/block_8_depthwise_BN/FusedBatchNormV3;center_net_mobile_net_v2fpn_feature_extractor/model_1/model/block_8_depthwise/depthwise;center_net_mobile_net_v2fpn_feature_extractor/model_1/model/block_10_depthwise/depthwise">
					<dim>1</dim>
					<dim>3</dim>
					<dim>3</dim>
					<dim>576</dim>
				</port>
			</output>
		</layer>
		<layer id="303" name="95" type="Convert" version="opset1">
			<data destination_type="f32" />
			<input>
				<port id="0" precision="FP16">
					<dim>1</dim>
					<dim>3</dim>
					<dim>3</dim>
					<dim>576</dim>
				</port>
			</input>
			<output>
				<port id="1" precision="FP32" names="center_net_mobile_net_v2fpn_feature_extractor/model_1/model/block_8_depthwise_BN/FusedBatchNormV3;center_net_mobile_net_v2fpn_feature_extractor/model_1/model/block_8_depthwise/depthwise;center_net_mobile_net_v2fpn_feature_extractor/model_1/model/block_10_depthwise/depthwise_dequantize">
					<dim>1</dim>
					<dim>3</dim>
					<dim>3</dim>
					<dim>576</dim>
				</port>
			</output>
		</layer>
		<layer id="304" name="Constant_28993" type="Const" version="opset1">
			<data element_type="i64" shape="4" offset="454402" size="32" />
			<rt_info>
				<attribute name="precise" version="0" />
			</rt_info>
			<output>
				<port id="0" precision="I64">
					<dim>4</dim>
				</port>
			</output>
		</layer>
		<layer id="305" name="Transpose_15710" type="Reshape" version="opset1">
			<data special_zero="true" />
			<input>
				<port id="0" precision="FP32">
					<dim>1</dim>
					<dim>3</dim>
					<dim>3</dim>
					<dim>576</dim>
				</port>
				<port id="1" precision="I64">
					<dim>4</dim>
				</port>
			</input>
			<output>
				<port id="2" precision="FP32">
					<dim>3</dim>
					<dim>3</dim>
					<dim>576</dim>
					<dim>1</dim>
				</port>
			</output>
		</layer>
		<layer id="306" name="Constant_15711" type="Const" version="opset1">
			<data element_type="i64" shape="4" offset="3682" size="32" />
			<rt_info>
				<attribute name="precise" version="0" />
			</rt_info>
			<output>
				<port id="0" precision="I64">
					<dim>4</dim>
				</port>
			</output>
		</layer>
		<layer id="307" name="Reshape_15712" type="Reshape" version="opset1">
			<data special_zero="true" />
			<input>
				<port id="0" precision="FP32">
					<dim>3</dim>
					<dim>3</dim>
					<dim>576</dim>
					<dim>1</dim>
				</port>
				<port id="1" precision="I64">
					<dim>4</dim>
				</port>
			</input>
			<output>
				<port id="2" precision="FP32">
					<dim>3</dim>
					<dim>3</dim>
					<dim>576</dim>
					<dim>1</dim>
				</port>
			</output>
		</layer>
		<layer id="308" name="Constant_15717" type="Const" version="opset1">
			<data element_type="i64" shape="1" offset="3714" size="8" />
			<output>
				<port id="0" precision="I64">
					<dim>1</dim>
				</port>
			</output>
		</layer>
		<layer id="309" name="Transpose_19493" type="Unsqueeze" version="opset1">
			<input>
				<port id="0" precision="FP32">
					<dim>3</dim>
					<dim>3</dim>
					<dim>576</dim>
					<dim>1</dim>
				</port>
				<port id="1" precision="I64">
					<dim>1</dim>
				</port>
			</input>
			<output>
				<port id="2" precision="FP32">
					<dim>3</dim>
					<dim>3</dim>
					<dim>576</dim>
					<dim>1</dim>
					<dim>1</dim>
				</port>
			</output>
		</layer>
		<layer id="310" name="Constant_19494" type="Const" version="opset1">
			<data element_type="i64" shape="5" offset="3722" size="40" />
			<output>
				<port id="0" precision="I64">
					<dim>5</dim>
				</port>
			</output>
		</layer>
		<layer id="311" name="Transpose_15720" type="Transpose" version="opset1">
			<input>
				<port id="0" precision="FP32">
					<dim>3</dim>
					<dim>3</dim>
					<dim>576</dim>
					<dim>1</dim>
					<dim>1</dim>
				</port>
				<port id="1" precision="I64">
					<dim>5</dim>
				</port>
			</input>
			<output>
				<port id="2" precision="FP32">
					<dim>576</dim>
					<dim>1</dim>
					<dim>1</dim>
					<dim>3</dim>
					<dim>3</dim>
				</port>
			</output>
		</layer>
		<layer id="312" name="GroupConvolution_15721" type="GroupConvolution" version="opset1">
			<data strides="1, 1" pads_begin="0, 0" pads_end="0, 0" dilations="1, 1" auto_pad="same_upper" />
			<input>
				<port id="0" precision="FP32">
					<dim>1</dim>
					<dim>576</dim>
					<dim>-1</dim>
					<dim>-1</dim>
				</port>
				<port id="1" precision="FP32">
					<dim>576</dim>
					<dim>1</dim>
					<dim>1</dim>
					<dim>3</dim>
					<dim>3</dim>
				</port>
			</input>
			<output>
				<port id="2" precision="FP32">
					<dim>1</dim>
					<dim>576</dim>
					<dim>-1</dim>
					<dim>-1</dim>
				</port>
			</output>
		</layer>
		<layer id="313" name="Transpose_22278" type="Const" version="opset1">
			<data element_type="f16" shape="576" offset="688482" size="1152" />
			<output>
				<port id="0" precision="FP16">
					<dim>576</dim>
				</port>
			</output>
		</layer>
		<layer id="314" name="Transpose_22275" type="Convert" version="opset1">
			<data destination_type="f32" />
			<input>
				<port id="0" precision="FP16">
					<dim>576</dim>
				</port>
			</input>
			<output>
				<port id="1" precision="FP32" names="center_net_mobile_net_v2fpn_feature_extractor/model_1/model/block_8_depthwise_BN/FusedBatchNormV3_dequantize">
					<dim>576</dim>
				</port>
			</output>
		</layer>
		<layer id="315" name="Constant_22276" type="Const" version="opset1">
			<data element_type="i64" shape="3" offset="2762" size="24" />
			<output>
				<port id="0" precision="I64">
					<dim>3</dim>
				</port>
			</output>
		</layer>
		<layer id="316" name="Transpose_19499" type="Unsqueeze" version="opset1">
			<input>
				<port id="0" precision="FP32">
					<dim>576</dim>
				</port>
				<port id="1" precision="I64">
					<dim>3</dim>
				</port>
			</input>
			<output>
				<port id="2" precision="FP32">
					<dim>1</dim>
					<dim>576</dim>
					<dim>1</dim>
					<dim>1</dim>
				</port>
			</output>
		</layer>
		<layer id="317" name="Transpose_19501" type="Add" version="opset1">
			<data auto_broadcast="numpy" />
			<input>
				<port id="0" precision="FP32">
					<dim>1</dim>
					<dim>576</dim>
					<dim>-1</dim>
					<dim>-1</dim>
				</port>
				<port id="1" precision="FP32">
					<dim>1</dim>
					<dim>576</dim>
					<dim>1</dim>
					<dim>1</dim>
				</port>
			</input>
			<output>
				<port id="2" precision="FP32">
					<dim>1</dim>
					<dim>576</dim>
					<dim>-1</dim>
					<dim>-1</dim>
				</port>
			</output>
		</layer>
		<layer id="318" name="Transpose_19503" type="Clamp" version="opset1">
			<data min="0" max="6" />
			<input>
				<port id="0" precision="FP32">
					<dim>1</dim>
					<dim>576</dim>
					<dim>-1</dim>
					<dim>-1</dim>
				</port>
			</input>
			<output>
				<port id="1" precision="FP32">
					<dim>1</dim>
					<dim>576</dim>
					<dim>-1</dim>
					<dim>-1</dim>
				</port>
			</output>
		</layer>
		<layer id="319" name="Transpose_22280" type="Const" version="opset1">
			<data element_type="f16" shape="96, 576, 1, 1" offset="689634" size="110592" />
			<output>
				<port id="0" precision="FP16">
					<dim>96</dim>
					<dim>576</dim>
					<dim>1</dim>
					<dim>1</dim>
				</port>
			</output>
		</layer>
		<layer id="320" name="Transpose_15733" type="Convert" version="opset1">
			<data destination_type="f32" />
			<input>
				<port id="0" precision="FP16">
					<dim>96</dim>
					<dim>576</dim>
					<dim>1</dim>
					<dim>1</dim>
				</port>
			</input>
			<output>
				<port id="1" precision="FP32" names="center_net_mobile_net_v2fpn_feature_extractor/model_1/model/block_8_project/Conv2D_dequantize">
					<dim>96</dim>
					<dim>576</dim>
					<dim>1</dim>
					<dim>1</dim>
				</port>
			</output>
		</layer>
		<layer id="321" name="Convolution_15734" type="Convolution" version="opset1">
			<data strides="1, 1" dilations="1, 1" pads_begin="0, 0" pads_end="0, 0" auto_pad="same_upper" />
			<input>
				<port id="0" precision="FP32">
					<dim>1</dim>
					<dim>576</dim>
					<dim>-1</dim>
					<dim>-1</dim>
				</port>
				<port id="1" precision="FP32">
					<dim>96</dim>
					<dim>576</dim>
					<dim>1</dim>
					<dim>1</dim>
				</port>
			</input>
			<output>
				<port id="2" precision="FP32">
					<dim>1</dim>
					<dim>96</dim>
					<dim>-1</dim>
					<dim>-1</dim>
				</port>
			</output>
		</layer>
		<layer id="322" name="Transpose_22286" type="Const" version="opset1">
			<data element_type="f16" shape="96" offset="800226" size="192" />
			<output>
				<port id="0" precision="FP16">
					<dim>96</dim>
				</port>
			</output>
		</layer>
		<layer id="323" name="Transpose_22283" type="Convert" version="opset1">
			<data destination_type="f32" />
			<input>
				<port id="0" precision="FP16">
					<dim>96</dim>
				</port>
			</input>
			<output>
				<port id="1" precision="FP32" names="center_net_mobile_net_v2fpn_feature_extractor/model_1/model/block_8_project_BN/FusedBatchNormV3;kpt_regress_0/separable_conv2d_7/separable_conv2d;center_net_mobile_net_v2fpn_feature_extractor/model_1/model/block_8_project/Conv2D_dequantize">
					<dim>96</dim>
				</port>
			</output>
		</layer>
		<layer id="324" name="Constant_22284" type="Const" version="opset1">
			<data element_type="i64" shape="3" offset="2762" size="24" />
			<output>
				<port id="0" precision="I64">
					<dim>3</dim>
				</port>
			</output>
		</layer>
		<layer id="325" name="Transpose_19507" type="Unsqueeze" version="opset1">
			<input>
				<port id="0" precision="FP32">
					<dim>96</dim>
				</port>
				<port id="1" precision="I64">
					<dim>3</dim>
				</port>
			</input>
			<output>
				<port id="2" precision="FP32">
					<dim>1</dim>
					<dim>96</dim>
					<dim>1</dim>
					<dim>1</dim>
				</port>
			</output>
		</layer>
		<layer id="326" name="Transpose_19509" type="Add" version="opset1">
			<data auto_broadcast="numpy" />
			<input>
				<port id="0" precision="FP32">
					<dim>1</dim>
					<dim>96</dim>
					<dim>-1</dim>
					<dim>-1</dim>
				</port>
				<port id="1" precision="FP32">
					<dim>1</dim>
					<dim>96</dim>
					<dim>1</dim>
					<dim>1</dim>
				</port>
			</input>
			<output>
				<port id="2" precision="FP32">
					<dim>1</dim>
					<dim>96</dim>
					<dim>-1</dim>
					<dim>-1</dim>
				</port>
			</output>
		</layer>
		<layer id="327" name="Transpose_19513" type="Add" version="opset1">
			<data auto_broadcast="numpy" />
			<input>
				<port id="0" precision="FP32">
					<dim>1</dim>
					<dim>96</dim>
					<dim>-1</dim>
					<dim>-1</dim>
				</port>
				<port id="1" precision="FP32">
					<dim>1</dim>
					<dim>96</dim>
					<dim>-1</dim>
					<dim>-1</dim>
				</port>
			</input>
			<output>
				<port id="2" precision="FP32">
					<dim>1</dim>
					<dim>96</dim>
					<dim>-1</dim>
					<dim>-1</dim>
				</port>
			</output>
		</layer>
		<layer id="328" name="Transpose_22288" type="Const" version="opset1">
			<data element_type="f16" shape="576, 96, 1, 1" offset="800418" size="110592" />
			<output>
				<port id="0" precision="FP16">
					<dim>576</dim>
					<dim>96</dim>
					<dim>1</dim>
					<dim>1</dim>
				</port>
			</output>
		</layer>
		<layer id="329" name="Transpose_15746" type="Convert" version="opset1">
			<data destination_type="f32" />
			<input>
				<port id="0" precision="FP16">
					<dim>576</dim>
					<dim>96</dim>
					<dim>1</dim>
					<dim>1</dim>
				</port>
			</input>
			<output>
				<port id="1" precision="FP32" names="center_net_mobile_net_v2fpn_feature_extractor/model_1/model/block_9_expand/Conv2D_dequantize">
					<dim>576</dim>
					<dim>96</dim>
					<dim>1</dim>
					<dim>1</dim>
				</port>
			</output>
		</layer>
		<layer id="330" name="Convolution_15747" type="Convolution" version="opset1">
			<data strides="1, 1" dilations="1, 1" pads_begin="0, 0" pads_end="0, 0" auto_pad="same_upper" />
			<input>
				<port id="0" precision="FP32">
					<dim>1</dim>
					<dim>96</dim>
					<dim>-1</dim>
					<dim>-1</dim>
				</port>
				<port id="1" precision="FP32">
					<dim>576</dim>
					<dim>96</dim>
					<dim>1</dim>
					<dim>1</dim>
				</port>
			</input>
			<output>
				<port id="2" precision="FP32">
					<dim>1</dim>
					<dim>576</dim>
					<dim>-1</dim>
					<dim>-1</dim>
				</port>
			</output>
		</layer>
		<layer id="331" name="Transpose_22294" type="Const" version="opset1">
			<data element_type="f16" shape="576" offset="911010" size="1152" />
			<output>
				<port id="0" precision="FP16">
					<dim>576</dim>
				</port>
			</output>
		</layer>
		<layer id="332" name="Transpose_22291" type="Convert" version="opset1">
			<data destination_type="f32" />
			<input>
				<port id="0" precision="FP16">
					<dim>576</dim>
				</port>
			</input>
			<output>
				<port id="1" precision="FP32" names="center_net_mobile_net_v2fpn_feature_extractor/model_1/model/block_9_expand_BN/FusedBatchNormV3_dequantize">
					<dim>576</dim>
				</port>
			</output>
		</layer>
		<layer id="333" name="Constant_22292" type="Const" version="opset1">
			<data element_type="i64" shape="3" offset="2762" size="24" />
			<output>
				<port id="0" precision="I64">
					<dim>3</dim>
				</port>
			</output>
		</layer>
		<layer id="334" name="Transpose_19517" type="Unsqueeze" version="opset1">
			<input>
				<port id="0" precision="FP32">
					<dim>576</dim>
				</port>
				<port id="1" precision="I64">
					<dim>3</dim>
				</port>
			</input>
			<output>
				<port id="2" precision="FP32">
					<dim>1</dim>
					<dim>576</dim>
					<dim>1</dim>
					<dim>1</dim>
				</port>
			</output>
		</layer>
		<layer id="335" name="Transpose_19519" type="Add" version="opset1">
			<data auto_broadcast="numpy" />
			<input>
				<port id="0" precision="FP32">
					<dim>1</dim>
					<dim>576</dim>
					<dim>-1</dim>
					<dim>-1</dim>
				</port>
				<port id="1" precision="FP32">
					<dim>1</dim>
					<dim>576</dim>
					<dim>1</dim>
					<dim>1</dim>
				</port>
			</input>
			<output>
				<port id="2" precision="FP32">
					<dim>1</dim>
					<dim>576</dim>
					<dim>-1</dim>
					<dim>-1</dim>
				</port>
			</output>
		</layer>
		<layer id="336" name="Transpose_19521" type="Clamp" version="opset1">
			<data min="0" max="6" />
			<input>
				<port id="0" precision="FP32">
					<dim>1</dim>
					<dim>576</dim>
					<dim>-1</dim>
					<dim>-1</dim>
				</port>
			</input>
			<output>
				<port id="1" precision="FP32">
					<dim>1</dim>
					<dim>576</dim>
					<dim>-1</dim>
					<dim>-1</dim>
				</port>
			</output>
		</layer>
		<layer id="337" name="center_net_mobile_net_v2fpn_feature_extractor/model_1/model/block_9_depthwise_BN/FusedBatchNormV3;center_net_mobile_net_v2fpn_feature_extractor/model_1/model/block_9_depthwise/depthwise;center_net_mobile_net_v2fpn_feature_extractor/model_1/model/block_10_depthwise/depthwise" type="Const" version="opset1">
			<data element_type="f16" shape="1, 3, 3, 576" offset="912162" size="10368" />
			<output>
				<port id="0" precision="FP16" names="center_net_mobile_net_v2fpn_feature_extractor/model_1/model/block_9_depthwise_BN/FusedBatchNormV3;center_net_mobile_net_v2fpn_feature_extractor/model_1/model/block_9_depthwise/depthwise;center_net_mobile_net_v2fpn_feature_extractor/model_1/model/block_10_depthwise/depthwise">
					<dim>1</dim>
					<dim>3</dim>
					<dim>3</dim>
					<dim>576</dim>
				</port>
			</output>
		</layer>
		<layer id="338" name="104" type="Convert" version="opset1">
			<data destination_type="f32" />
			<input>
				<port id="0" precision="FP16">
					<dim>1</dim>
					<dim>3</dim>
					<dim>3</dim>
					<dim>576</dim>
				</port>
			</input>
			<output>
				<port id="1" precision="FP32" names="center_net_mobile_net_v2fpn_feature_extractor/model_1/model/block_9_depthwise_BN/FusedBatchNormV3;center_net_mobile_net_v2fpn_feature_extractor/model_1/model/block_9_depthwise/depthwise;center_net_mobile_net_v2fpn_feature_extractor/model_1/model/block_10_depthwise/depthwise_dequantize">
					<dim>1</dim>
					<dim>3</dim>
					<dim>3</dim>
					<dim>576</dim>
				</port>
			</output>
		</layer>
		<layer id="339" name="Constant_28995" type="Const" version="opset1">
			<data element_type="i64" shape="4" offset="454402" size="32" />
			<rt_info>
				<attribute name="precise" version="0" />
			</rt_info>
			<output>
				<port id="0" precision="I64">
					<dim>4</dim>
				</port>
			</output>
		</layer>
		<layer id="340" name="Transpose_15755" type="Reshape" version="opset1">
			<data special_zero="true" />
			<input>
				<port id="0" precision="FP32">
					<dim>1</dim>
					<dim>3</dim>
					<dim>3</dim>
					<dim>576</dim>
				</port>
				<port id="1" precision="I64">
					<dim>4</dim>
				</port>
			</input>
			<output>
				<port id="2" precision="FP32">
					<dim>3</dim>
					<dim>3</dim>
					<dim>576</dim>
					<dim>1</dim>
				</port>
			</output>
		</layer>
		<layer id="341" name="Constant_15756" type="Const" version="opset1">
			<data element_type="i64" shape="4" offset="3682" size="32" />
			<rt_info>
				<attribute name="precise" version="0" />
			</rt_info>
			<output>
				<port id="0" precision="I64">
					<dim>4</dim>
				</port>
			</output>
		</layer>
		<layer id="342" name="Reshape_15757" type="Reshape" version="opset1">
			<data special_zero="true" />
			<input>
				<port id="0" precision="FP32">
					<dim>3</dim>
					<dim>3</dim>
					<dim>576</dim>
					<dim>1</dim>
				</port>
				<port id="1" precision="I64">
					<dim>4</dim>
				</port>
			</input>
			<output>
				<port id="2" precision="FP32">
					<dim>3</dim>
					<dim>3</dim>
					<dim>576</dim>
					<dim>1</dim>
				</port>
			</output>
		</layer>
		<layer id="343" name="Constant_15762" type="Const" version="opset1">
			<data element_type="i64" shape="1" offset="3714" size="8" />
			<output>
				<port id="0" precision="I64">
					<dim>1</dim>
				</port>
			</output>
		</layer>
		<layer id="344" name="Transpose_19524" type="Unsqueeze" version="opset1">
			<input>
				<port id="0" precision="FP32">
					<dim>3</dim>
					<dim>3</dim>
					<dim>576</dim>
					<dim>1</dim>
				</port>
				<port id="1" precision="I64">
					<dim>1</dim>
				</port>
			</input>
			<output>
				<port id="2" precision="FP32">
					<dim>3</dim>
					<dim>3</dim>
					<dim>576</dim>
					<dim>1</dim>
					<dim>1</dim>
				</port>
			</output>
		</layer>
		<layer id="345" name="Constant_19525" type="Const" version="opset1">
			<data element_type="i64" shape="5" offset="3722" size="40" />
			<output>
				<port id="0" precision="I64">
					<dim>5</dim>
				</port>
			</output>
		</layer>
		<layer id="346" name="Transpose_15765" type="Transpose" version="opset1">
			<input>
				<port id="0" precision="FP32">
					<dim>3</dim>
					<dim>3</dim>
					<dim>576</dim>
					<dim>1</dim>
					<dim>1</dim>
				</port>
				<port id="1" precision="I64">
					<dim>5</dim>
				</port>
			</input>
			<output>
				<port id="2" precision="FP32">
					<dim>576</dim>
					<dim>1</dim>
					<dim>1</dim>
					<dim>3</dim>
					<dim>3</dim>
				</port>
			</output>
		</layer>
		<layer id="347" name="GroupConvolution_15766" type="GroupConvolution" version="opset1">
			<data strides="1, 1" pads_begin="0, 0" pads_end="0, 0" dilations="1, 1" auto_pad="same_upper" />
			<input>
				<port id="0" precision="FP32">
					<dim>1</dim>
					<dim>576</dim>
					<dim>-1</dim>
					<dim>-1</dim>
				</port>
				<port id="1" precision="FP32">
					<dim>576</dim>
					<dim>1</dim>
					<dim>1</dim>
					<dim>3</dim>
					<dim>3</dim>
				</port>
			</input>
			<output>
				<port id="2" precision="FP32">
					<dim>1</dim>
					<dim>576</dim>
					<dim>-1</dim>
					<dim>-1</dim>
				</port>
			</output>
		</layer>
		<layer id="348" name="Transpose_22300" type="Const" version="opset1">
			<data element_type="f16" shape="576" offset="922530" size="1152" />
			<output>
				<port id="0" precision="FP16">
					<dim>576</dim>
				</port>
			</output>
		</layer>
		<layer id="349" name="Transpose_22297" type="Convert" version="opset1">
			<data destination_type="f32" />
			<input>
				<port id="0" precision="FP16">
					<dim>576</dim>
				</port>
			</input>
			<output>
				<port id="1" precision="FP32" names="center_net_mobile_net_v2fpn_feature_extractor/model_1/model/block_9_depthwise_BN/FusedBatchNormV3_dequantize">
					<dim>576</dim>
				</port>
			</output>
		</layer>
		<layer id="350" name="Constant_22298" type="Const" version="opset1">
			<data element_type="i64" shape="3" offset="2762" size="24" />
			<output>
				<port id="0" precision="I64">
					<dim>3</dim>
				</port>
			</output>
		</layer>
		<layer id="351" name="Transpose_19530" type="Unsqueeze" version="opset1">
			<input>
				<port id="0" precision="FP32">
					<dim>576</dim>
				</port>
				<port id="1" precision="I64">
					<dim>3</dim>
				</port>
			</input>
			<output>
				<port id="2" precision="FP32">
					<dim>1</dim>
					<dim>576</dim>
					<dim>1</dim>
					<dim>1</dim>
				</port>
			</output>
		</layer>
		<layer id="352" name="Transpose_19532" type="Add" version="opset1">
			<data auto_broadcast="numpy" />
			<input>
				<port id="0" precision="FP32">
					<dim>1</dim>
					<dim>576</dim>
					<dim>-1</dim>
					<dim>-1</dim>
				</port>
				<port id="1" precision="FP32">
					<dim>1</dim>
					<dim>576</dim>
					<dim>1</dim>
					<dim>1</dim>
				</port>
			</input>
			<output>
				<port id="2" precision="FP32">
					<dim>1</dim>
					<dim>576</dim>
					<dim>-1</dim>
					<dim>-1</dim>
				</port>
			</output>
		</layer>
		<layer id="353" name="Transpose_19534" type="Clamp" version="opset1">
			<data min="0" max="6" />
			<input>
				<port id="0" precision="FP32">
					<dim>1</dim>
					<dim>576</dim>
					<dim>-1</dim>
					<dim>-1</dim>
				</port>
			</input>
			<output>
				<port id="1" precision="FP32">
					<dim>1</dim>
					<dim>576</dim>
					<dim>-1</dim>
					<dim>-1</dim>
				</port>
			</output>
		</layer>
		<layer id="354" name="Transpose_22302" type="Const" version="opset1">
			<data element_type="f16" shape="96, 576, 1, 1" offset="923682" size="110592" />
			<output>
				<port id="0" precision="FP16">
					<dim>96</dim>
					<dim>576</dim>
					<dim>1</dim>
					<dim>1</dim>
				</port>
			</output>
		</layer>
		<layer id="355" name="Transpose_15778" type="Convert" version="opset1">
			<data destination_type="f32" />
			<input>
				<port id="0" precision="FP16">
					<dim>96</dim>
					<dim>576</dim>
					<dim>1</dim>
					<dim>1</dim>
				</port>
			</input>
			<output>
				<port id="1" precision="FP32" names="center_net_mobile_net_v2fpn_feature_extractor/model_1/model/block_9_project/Conv2D_dequantize">
					<dim>96</dim>
					<dim>576</dim>
					<dim>1</dim>
					<dim>1</dim>
				</port>
			</output>
		</layer>
		<layer id="356" name="Convolution_15779" type="Convolution" version="opset1">
			<data strides="1, 1" dilations="1, 1" pads_begin="0, 0" pads_end="0, 0" auto_pad="same_upper" />
			<input>
				<port id="0" precision="FP32">
					<dim>1</dim>
					<dim>576</dim>
					<dim>-1</dim>
					<dim>-1</dim>
				</port>
				<port id="1" precision="FP32">
					<dim>96</dim>
					<dim>576</dim>
					<dim>1</dim>
					<dim>1</dim>
				</port>
			</input>
			<output>
…
		<edge from-layer="818" from-port="1" to-layer="819" to-port="0" />
		<edge from-layer="819" from-port="2" to-layer="820" to-port="0" />
		<edge from-layer="820" from-port="2" to-layer="821" to-port="1" />
		<edge from-layer="821" from-port="2" to-layer="822" to-port="1" />
		<edge from-layer="822" from-port="2" to-layer="823" to-port="1" />
		<edge from-layer="822" from-port="2" to-layer="1114" to-port="1" />
		<edge from-layer="823" from-port="2" to-layer="1148" to-port="0" />
		<edge from-layer="823" from-port="2" to-layer="830" to-port="0" />
		<edge from-layer="824" from-port="0" to-layer="825" to-port="1" />
		<edge from-layer="824" from-port="0" to-layer="826" to-port="1" />
		<edge from-layer="825" from-port="2" to-layer="1168" to-port="0" />
		<edge from-layer="825" from-port="2" to-layer="829" to-port="0" />
		<edge from-layer="825" from-port="2" to-layer="1147" to-port="0" />
		<edge from-layer="826" from-port="2" to-layer="1168" to-port="1" />
		<edge from-layer="826" from-port="2" to-layer="1147" to-port="1" />
		<edge from-layer="826" from-port="2" to-layer="829" to-port="1" />
		<edge from-layer="827" from-port="0" to-layer="829" to-port="2" />
		<edge from-layer="828" from-port="0" to-layer="829" to-port="3" />
		<edge from-layer="829" from-port="4" to-layer="830" to-port="1" />
		<edge from-layer="829" from-port="4" to-layer="1115" to-port="1" />
		<edge from-layer="830" from-port="2" to-layer="831" to-port="0" />
		<edge from-layer="830" from-port="2" to-layer="835" to-port="0" />
		<edge from-layer="831" from-port="1" to-layer="834" to-port="0" />
		<edge from-layer="832" from-port="0" to-layer="834" to-port="1" />
		<edge from-layer="833" from-port="0" to-layer="834" to-port="2" />
		<edge from-layer="834" from-port="3" to-layer="835" to-port="1" />
		<edge from-layer="835" from-port="2" to-layer="1111" to-port="0" />
		<edge from-layer="836" from-port="0" to-layer="837" to-port="0" />
		<edge from-layer="837" from-port="1" to-layer="839" to-port="0" />
		<edge from-layer="838" from-port="0" to-layer="839" to-port="1" />
		<edge from-layer="839" from-port="2" to-layer="841" to-port="0" />
		<edge from-layer="840" from-port="0" to-layer="841" to-port="1" />
		<edge from-layer="841" from-port="2" to-layer="843" to-port="0" />
		<edge from-layer="842" from-port="0" to-layer="843" to-port="1" />
		<edge from-layer="843" from-port="2" to-layer="845" to-port="0" />
		<edge from-layer="844" from-port="0" to-layer="845" to-port="1" />
		<edge from-layer="845" from-port="2" to-layer="846" to-port="1" />
		<edge from-layer="846" from-port="2" to-layer="847" to-port="0" />
		<edge from-layer="847" from-port="2" to-layer="850" to-port="0" />
		<edge from-layer="848" from-port="0" to-layer="849" to-port="0" />
		<edge from-layer="849" from-port="1" to-layer="850" to-port="1" />
		<edge from-layer="850" from-port="2" to-layer="855" to-port="0" />
		<edge from-layer="851" from-port="0" to-layer="852" to-port="0" />
		<edge from-layer="852" from-port="1" to-layer="854" to-port="0" />
		<edge from-layer="853" from-port="0" to-layer="854" to-port="1" />
		<edge from-layer="854" from-port="2" to-layer="855" to-port="1" />
		<edge from-layer="855" from-port="2" to-layer="856" to-port="0" />
		<edge from-layer="856" from-port="1" to-layer="859" to-port="0" />
		<edge from-layer="857" from-port="0" to-layer="858" to-port="0" />
		<edge from-layer="858" from-port="1" to-layer="859" to-port="1" />
		<edge from-layer="859" from-port="2" to-layer="864" to-port="0" />
		<edge from-layer="860" from-port="0" to-layer="861" to-port="0" />
		<edge from-layer="861" from-port="1" to-layer="863" to-port="0" />
		<edge from-layer="862" from-port="0" to-layer="863" to-port="1" />
		<edge from-layer="863" from-port="2" to-layer="864" to-port="1" />
		<edge from-layer="864" from-port="2" to-layer="865" to-port="0" />
		<edge from-layer="865" from-port="1" to-layer="877" to-port="0" />
		<edge from-layer="865" from-port="1" to-layer="870" to-port="0" />
		<edge from-layer="865" from-port="1" to-layer="866" to-port="0" />
		<edge from-layer="865" from-port="1" to-layer="900" to-port="0" />
		<edge from-layer="866" from-port="1" to-layer="869" to-port="0" />
		<edge from-layer="867" from-port="0" to-layer="902" to-port="1" />
		<edge from-layer="867" from-port="0" to-layer="869" to-port="1" />
		<edge from-layer="868" from-port="0" to-layer="869" to-port="2" />
		<edge from-layer="869" from-port="3" to-layer="870" to-port="1" />
		<edge from-layer="870" from-port="2" to-layer="875" to-port="0" />
		<edge from-layer="870" from-port="2" to-layer="907" to-port="1" />
		<edge from-layer="870" from-port="2" to-layer="871" to-port="0" />
		<edge from-layer="871" from-port="1" to-layer="874" to-port="0" />
		<edge from-layer="872" from-port="0" to-layer="874" to-port="1" />
		<edge from-layer="873" from-port="0" to-layer="874" to-port="2" />
		<edge from-layer="874" from-port="3" to-layer="875" to-port="1" />
		<edge from-layer="875" from-port="2" to-layer="876" to-port="0" />
		<edge from-layer="876" from-port="1" to-layer="877" to-port="1" />
		<edge from-layer="877" from-port="2" to-layer="878" to-port="0" />
		<edge from-layer="878" from-port="1" to-layer="883" to-port="0" />
		<edge from-layer="879" from-port="0" to-layer="880" to-port="0" />
		<edge from-layer="880" from-port="1" to-layer="882" to-port="0" />
		<edge from-layer="881" from-port="0" to-layer="882" to-port="1" />
		<edge from-layer="882" from-port="2" to-layer="883" to-port="1" />
		<edge from-layer="883" from-port="2" to-layer="884" to-port="0" />
		<edge from-layer="883" from-port="2" to-layer="888" to-port="0" />
		<edge from-layer="883" from-port="2" to-layer="890" to-port="0" />
		<edge from-layer="884" from-port="1" to-layer="887" to-port="0" />
		<edge from-layer="885" from-port="0" to-layer="887" to-port="1" />
		<edge from-layer="885" from-port="0" to-layer="892" to-port="1" />
		<edge from-layer="886" from-port="0" to-layer="887" to-port="2" />
		<edge from-layer="887" from-port="3" to-layer="888" to-port="1" />
		<edge from-layer="888" from-port="2" to-layer="894" to-port="0" />
		<edge from-layer="889" from-port="0" to-layer="893" to-port="0" />
		<edge from-layer="890" from-port="1" to-layer="892" to-port="0" />
		<edge from-layer="891" from-port="0" to-layer="892" to-port="2" />
		<edge from-layer="892" from-port="3" to-layer="893" to-port="1" />
		<edge from-layer="893" from-port="2" to-layer="894" to-port="1" />
		<edge from-layer="894" from-port="2" to-layer="896" to-port="0" />
		<edge from-layer="895" from-port="0" to-layer="896" to-port="1" />
		<edge from-layer="896" from-port="2" to-layer="907" to-port="0" />
		<edge from-layer="897" from-port="0" to-layer="898" to-port="0" />
		<edge from-layer="898" from-port="1" to-layer="904" to-port="0" />
		<edge from-layer="899" from-port="0" to-layer="903" to-port="0" />
		<edge from-layer="900" from-port="1" to-layer="902" to-port="0" />
		<edge from-layer="901" from-port="0" to-layer="902" to-port="2" />
		<edge from-layer="902" from-port="3" to-layer="1273" to-port="0" />
		<edge from-layer="902" from-port="3" to-layer="916" to-port="0" />
		<edge from-layer="902" from-port="3" to-layer="903" to-port="1" />
		<edge from-layer="903" from-port="2" to-layer="904" to-port="1" />
		<edge from-layer="904" from-port="2" to-layer="906" to-port="0" />
		<edge from-layer="905" from-port="0" to-layer="906" to-port="1" />
		<edge from-layer="906" from-port="2" to-layer="907" to-port="2" />
		<edge from-layer="907" from-port="3" to-layer="909" to-port="0" />
		<edge from-layer="908" from-port="0" to-layer="909" to-port="1" />
		<edge from-layer="908" from-port="0" to-layer="1113" to-port="1" />
		<edge from-layer="909" from-port="2" to-layer="914" to-port="0" />
		<edge from-layer="909" from-port="2" to-layer="910" to-port="0" />
		<edge from-layer="910" from-port="1" to-layer="911" to-port="0" />
		<edge from-layer="911" from-port="4" to-layer="913" to-port="0" />
		<edge from-layer="912" from-port="0" to-layer="913" to-port="1" />
		<edge from-layer="913" from-port="2" to-layer="914" to-port="1" />
		<edge from-layer="914" from-port="3" to-layer="1327" to-port="0" />
		<edge from-layer="914" from-port="2" to-layer="1384" to-port="2" />
		<edge from-layer="914" from-port="2" to-layer="1364" to-port="0" />
		<edge from-layer="914" from-port="3" to-layer="915" to-port="0" />
		<edge from-layer="915" from-port="1" to-layer="965" to-port="0" />
		<edge from-layer="915" from-port="1" to-layer="1327" to-port="1" />
		<edge from-layer="915" from-port="1" to-layer="917" to-port="0" />
		<edge from-layer="916" from-port="4" to-layer="1278" to-port="0" />
		<edge from-layer="916" from-port="4" to-layer="964" to-port="1" />
		<edge from-layer="916" from-port="4" to-layer="917" to-port="1" />
		<edge from-layer="917" from-port="2" to-layer="918" to-port="0" />
		<edge from-layer="918" from-port="1" to-layer="981" to-port="0" />
		<edge from-layer="918" from-port="1" to-layer="919" to-port="0" />
		<edge from-layer="918" from-port="1" to-layer="925" to-port="0" />
		<edge from-layer="918" from-port="1" to-layer="961" to-port="0" />
		<edge from-layer="918" from-port="1" to-layer="964" to-port="0" />
		<edge from-layer="919" from-port="1" to-layer="920" to-port="0" />
		<edge from-layer="920" from-port="4" to-layer="922" to-port="0" />
		<edge from-layer="921" from-port="0" to-layer="922" to-port="1" />
		<edge from-layer="922" from-port="2" to-layer="1024" to-port="1" />
		<edge from-layer="922" from-port="2" to-layer="924" to-port="0" />
		<edge from-layer="922" from-port="2" to-layer="1015" to-port="1" />
		<edge from-layer="922" from-port="2" to-layer="973" to-port="0" />
		<edge from-layer="923" from-port="0" to-layer="924" to-port="1" />
		<edge from-layer="924" from-port="2" to-layer="925" to-port="1" />
		<edge from-layer="924" from-port="2" to-layer="1121" to-port="1" />
		<edge from-layer="925" from-port="2" to-layer="926" to-port="0" />
		<edge from-layer="926" from-port="1" to-layer="978" to-port="0" />
		<edge from-layer="927" from-port="0" to-layer="928" to-port="0" />
		<edge from-layer="928" from-port="1" to-layer="930" to-port="0" />
		<edge from-layer="929" from-port="0" to-layer="930" to-port="1" />
		<edge from-layer="930" from-port="2" to-layer="932" to-port="0" />
		<edge from-layer="931" from-port="0" to-layer="932" to-port="1" />
		<edge from-layer="932" from-port="2" to-layer="934" to-port="0" />
		<edge from-layer="933" from-port="0" to-layer="934" to-port="1" />
		<edge from-layer="934" from-port="2" to-layer="936" to-port="0" />
		<edge from-layer="935" from-port="0" to-layer="936" to-port="1" />
		<edge from-layer="936" from-port="2" to-layer="937" to-port="1" />
		<edge from-layer="937" from-port="2" to-layer="938" to-port="0" />
		<edge from-layer="938" from-port="2" to-layer="941" to-port="0" />
		<edge from-layer="939" from-port="0" to-layer="940" to-port="0" />
		<edge from-layer="940" from-port="1" to-layer="941" to-port="1" />
		<edge from-layer="941" from-port="2" to-layer="946" to-port="0" />
		<edge from-layer="942" from-port="0" to-layer="943" to-port="0" />
		<edge from-layer="943" from-port="1" to-layer="945" to-port="0" />
		<edge from-layer="944" from-port="0" to-layer="945" to-port="1" />
		<edge from-layer="945" from-port="2" to-layer="946" to-port="1" />
		<edge from-layer="946" from-port="2" to-layer="947" to-port="0" />
		<edge from-layer="947" from-port="1" to-layer="950" to-port="0" />
		<edge from-layer="948" from-port="0" to-layer="949" to-port="0" />
		<edge from-layer="949" from-port="1" to-layer="950" to-port="1" />
		<edge from-layer="950" from-port="2" to-layer="955" to-port="0" />
		<edge from-layer="951" from-port="0" to-layer="952" to-port="0" />
		<edge from-layer="952" from-port="1" to-layer="954" to-port="0" />
		<edge from-layer="953" from-port="0" to-layer="954" to-port="1" />
		<edge from-layer="954" from-port="2" to-layer="955" to-port="1" />
		<edge from-layer="955" from-port="2" to-layer="957" to-port="0" />
		<edge from-layer="956" from-port="0" to-layer="957" to-port="1" />
		<edge from-layer="957" from-port="2" to-layer="959" to-port="0" />
		<edge from-layer="958" from-port="0" to-layer="959" to-port="1" />
		<edge from-layer="959" from-port="2" to-layer="970" to-port="0" />
		<edge from-layer="960" from-port="0" to-layer="961" to-port="1" />
		<edge from-layer="961" from-port="2" to-layer="963" to-port="0" />
		<edge from-layer="962" from-port="0" to-layer="1019" to-port="1" />
		<edge from-layer="962" from-port="0" to-layer="963" to-port="1" />
		<edge from-layer="962" from-port="0" to-layer="968" to-port="1" />
		<edge from-layer="963" from-port="2" to-layer="1020" to-port="1" />
		<edge from-layer="963" from-port="2" to-layer="969" to-port="0" />
		<edge from-layer="964" from-port="2" to-layer="965" to-port="1" />
		<edge from-layer="965" from-port="2" to-layer="1080" to-port="0" />
		<edge from-layer="965" from-port="2" to-layer="967" to-port="0" />
		<edge from-layer="965" from-port="2" to-layer="1121" to-port="0" />
		<edge from-layer="966" from-port="0" to-layer="967" to-port="1" />
		<edge from-layer="967" from-port="2" to-layer="968" to-port="0" />
		<edge from-layer="968" from-port="2" to-layer="1020" to-port="2" />
		<edge from-layer="968" from-port="2" to-layer="969" to-port="1" />
		<edge from-layer="969" from-port="2" to-layer="970" to-port="1" />
		<edge from-layer="970" from-port="2" to-layer="974" to-port="0" />
		<edge from-layer="971" from-port="0" to-layer="973" to-port="1" />
		<edge from-layer="972" from-port="0" to-layer="973" to-port="2" />
		<edge from-layer="973" from-port="3" to-layer="974" to-port="1" />
		<edge from-layer="974" from-port="2" to-layer="976" to-port="0" />
		<edge from-layer="975" from-port="0" to-layer="977" to-port="1" />
		<edge from-layer="975" from-port="0" to-layer="976" to-port="1" />
		<edge from-layer="975" from-port="0" to-layer="1123" to-port="1" />
		<edge from-layer="976" from-port="3" to-layer="1123" to-port="0" />
		<edge from-layer="976" from-port="2" to-layer="977" to-port="0" />
		<edge from-layer="977" from-port="2" to-layer="978" to-port="1" />
		<edge from-layer="978" from-port="2" to-layer="1108" to-port="0" />
		<edge from-layer="979" from-port="0" to-layer="1107" to-port="0" />
		<edge from-layer="980" from-port="0" to-layer="1107" to-port="1" />
		<edge from-layer="981" from-port="1" to-layer="1029" to-port="0" />
		<edge from-layer="982" from-port="0" to-layer="983" to-port="0" />
		<edge from-layer="983" from-port="1" to-layer="985" to-port="0" />
		<edge from-layer="984" from-port="0" to-layer="985" to-port="1" />
		<edge from-layer="985" from-port="2" to-layer="987" to-port="0" />
		<edge from-layer="986" from-port="0" to-layer="987" to-port="1" />
		<edge from-layer="987" from-port="2" to-layer="989" to-port="0" />
		<edge from-layer="988" from-port="0" to-layer="989" to-port="1" />
		<edge from-layer="989" from-port="2" to-layer="991" to-port="0" />
		<edge from-layer="990" from-port="0" to-layer="991" to-port="1" />
		<edge from-layer="991" from-port="2" to-layer="992" to-port="1" />
		<edge from-layer="992" from-port="2" to-layer="993" to-port="0" />
		<edge from-layer="993" from-port="2" to-layer="996" to-port="0" />
		<edge from-layer="994" from-port="0" to-layer="995" to-port="0" />
		<edge from-layer="995" from-port="1" to-layer="996" to-port="1" />
		<edge from-layer="996" from-port="2" to-layer="1001" to-port="0" />
		<edge from-layer="997" from-port="0" to-layer="998" to-port="0" />
		<edge from-layer="998" from-port="1" to-layer="1000" to-port="0" />
		<edge from-layer="999" from-port="0" to-layer="1000" to-port="1" />
		<edge from-layer="1000" from-port="2" to-layer="1001" to-port="1" />
		<edge from-layer="1001" from-port="2" to-layer="1002" to-port="0" />
		<edge from-layer="1002" from-port="1" to-layer="1005" to-port="0" />
		<edge from-layer="1003" from-port="0" to-layer="1004" to-port="0" />
		<edge from-layer="1004" from-port="1" to-layer="1005" to-port="1" />
		<edge from-layer="1005" from-port="2" to-layer="1010" to-port="0" />
		<edge from-layer="1006" from-port="0" to-layer="1007" to-port="0" />
		<edge from-layer="1007" from-port="1" to-layer="1009" to-port="0" />
		<edge from-layer="1008" from-port="0" to-layer="1009" to-port="1" />
		<edge from-layer="1009" from-port="2" to-layer="1010" to-port="1" />
		<edge from-layer="1010" from-port="2" to-layer="1012" to-port="0" />
		<edge from-layer="1011" from-port="0" to-layer="1012" to-port="1" />
		<edge from-layer="1012" from-port="2" to-layer="1021" to-port="0" />
		<edge from-layer="1013" from-port="0" to-layer="1016" to-port="0" />
		<edge from-layer="1014" from-port="0" to-layer="1015" to-port="0" />
		<edge from-layer="1015" from-port="2" to-layer="1016" to-port="1" />
		<edge from-layer="1016" from-port="2" to-layer="1018" to-port="0" />
		<edge from-layer="1017" from-port="0" to-layer="1018" to-port="1" />
		<edge from-layer="1018" from-port="2" to-layer="1019" to-port="0" />
		<edge from-layer="1019" from-port="2" to-layer="1020" to-port="0" />
		<edge from-layer="1020" from-port="3" to-layer="1021" to-port="1" />
		<edge from-layer="1020" from-port="3" to-layer="1061" to-port="1" />
		<edge from-layer="1021" from-port="2" to-layer="1025" to-port="0" />
		<edge from-layer="1022" from-port="0" to-layer="1024" to-port="0" />
		<edge from-layer="1023" from-port="0" to-layer="1024" to-port="2" />
		<edge from-layer="1024" from-port="3" to-layer="1063" to-port="1" />
		<edge from-layer="1024" from-port="3" to-layer="1025" to-port="1" />
		<edge from-layer="1025" from-port="2" to-layer="1027" to-port="0" />
		<edge from-layer="1026" from-port="0" to-layer="1028" to-port="1" />
		<edge from-layer="1026" from-port="0" to-layer="1081" to-port="1" />
		<edge from-layer="1026" from-port="0" to-layer="1027" to-port="1" />
		<edge from-layer="1027" from-port="3" to-layer="1081" to-port="0" />
		<edge from-layer="1027" from-port="2" to-layer="1028" to-port="0" />
		<edge from-layer="1028" from-port="2" to-layer="1029" to-port="1" />
		<edge from-layer="1029" from-port="2" to-layer="1070" to-port="0" />
		<edge from-layer="1029" from-port="2" to-layer="1091" to-port="0" />
		<edge from-layer="1030" from-port="0" to-layer="1031" to-port="0" />
		<edge from-layer="1031" from-port="1" to-layer="1033" to-port="0" />
		<edge from-layer="1032" from-port="0" to-layer="1033" to-port="1" />
		<edge from-layer="1033" from-port="2" to-layer="1035" to-port="0" />
		<edge from-layer="1034" from-port="0" to-layer="1035" to-port="1" />
		<edge from-layer="1035" from-port="2" to-layer="1037" to-port="0" />
		<edge from-layer="1036" from-port="0" to-layer="1037" to-port="1" />
		<edge from-layer="1037" from-port="2" to-layer="1039" to-port="0" />
		<edge from-layer="1038" from-port="0" to-layer="1039" to-port="1" />
		<edge from-layer="1039" from-port="2" to-layer="1040" to-port="1" />
		<edge from-layer="1040" from-port="2" to-layer="1041" to-port="0" />
		<edge from-layer="1041" from-port="2" to-layer="1044" to-port="0" />
		<edge from-layer="1042" from-port="0" to-layer="1043" to-port="0" />
		<edge from-layer="1043" from-port="1" to-layer="1044" to-port="1" />
		<edge from-layer="1044" from-port="2" to-layer="1049" to-port="0" />
		<edge from-layer="1045" from-port="0" to-layer="1046" to-port="0" />
		<edge from-layer="1046" from-port="1" to-layer="1048" to-port="0" />
		<edge from-layer="1047" from-port="0" to-layer="1048" to-port="1" />
		<edge from-layer="1048" from-port="2" to-layer="1049" to-port="1" />
		<edge from-layer="1049" from-port="2" to-layer="1050" to-port="0" />
		<edge from-layer="1050" from-port="1" to-layer="1053" to-port="0" />
		<edge from-layer="1051" from-port="0" to-layer="1052" to-port="0" />
		<edge from-layer="1052" from-port="1" to-layer="1053" to-port="1" />
		<edge from-layer="1053" from-port="2" to-layer="1058" to-port="0" />
		<edge from-layer="1054" from-port="0" to-layer="1055" to-port="0" />
		<edge from-layer="1055" from-port="1" to-layer="1057" to-port="0" />
		<edge from-layer="1056" from-port="0" to-layer="1057" to-port="1" />
		<edge from-layer="1057" from-port="2" to-layer="1058" to-port="1" />
		<edge from-layer="1058" from-port="2" to-layer="1060" to-port="0" />
		<edge from-layer="1058" from-port="2" to-layer="1071" to-port="0" />
		<edge from-layer="1059" from-port="0" to-layer="1060" to-port="1" />
		<edge from-layer="1059" from-port="0" to-layer="1073" to-port="1" />
		<edge from-layer="1060" from-port="2" to-layer="1061" to-port="0" />
		<edge from-layer="1061" from-port="2" to-layer="1062" to-port="0" />
		<edge from-layer="1062" from-port="1" to-layer="1063" to-port="0" />
		<edge from-layer="1063" from-port="2" to-layer="1065" to-port="0" />
		<edge from-layer="1064" from-port="0" to-layer="1083" to-port="1" />
		<edge from-layer="1064" from-port="0" to-layer="1065" to-port="1" />
		<edge from-layer="1064" from-port="0" to-layer="1066" to-port="1" />
		<edge from-layer="1065" from-port="2" to-layer="1066" to-port="0" />
		<edge from-layer="1065" from-port="3" to-layer="1083" to-port="0" />
		<edge from-layer="1066" from-port="2" to-layer="1069" to-port="0" />
		<edge from-layer="1067" from-port="0" to-layer="1068" to-port="0" />
		<edge from-layer="1068" from-port="1" to-layer="1084" to-port="1" />
		<edge from-layer="1068" from-port="1" to-layer="1069" to-port="1" />
		<edge from-layer="1069" from-port="2" to-layer="1070" to-port="1" />
		<edge from-layer="1069" from-port="2" to-layer="1091" to-port="1" />
		<edge from-layer="1070" from-port="2" to-layer="1076" to-port="0" />
		<edge from-layer="1071" from-port="1" to-layer="1073" to-port="0" />
		<edge from-layer="1072" from-port="0" to-layer="1073" to-port="2" />
		<edge from-layer="1073" from-port="3" to-layer="1074" to-port="0" />
		<edge from-layer="1073" from-port="3" to-layer="1086" to-port="0" />
		<edge from-layer="1074" from-port="4" to-layer="1075" to-port="0" />
		<edge from-layer="1075" from-port="1" to-layer="1076" to-port="1" />
		<edge from-layer="1075" from-port="1" to-layer="1092" to-port="1" />
		<edge from-layer="1076" from-port="2" to-layer="1077" to-port="0" />
		<edge from-layer="1077" from-port="1" to-layer="1079" to-port="0" />
		<edge from-layer="1078" from-port="0" to-layer="1090" to-port="1" />
		<edge from-layer="1078" from-port="0" to-layer="1098" to-port="1" />
		<edge from-layer="1078" from-port="0" to-layer="1079" to-port="1" />
		<edge from-layer="1078" from-port="0" to-layer="1094" to-port="1" />
		<edge from-layer="1079" from-port="2" to-layer="1099" to-port="0" />
		<edge from-layer="1080" from-port="1" to-layer="1082" to-port="0" />
		<edge from-layer="1081" from-port="2" to-layer="1082" to-port="1" />
		<edge from-layer="1082" from-port="2" to-layer="1095" to-port="0" />
		<edge from-layer="1082" from-port="2" to-layer="1085" to-port="0" />
		<edge from-layer="1083" from-port="2" to-layer="1084" to-port="0" />
		<edge from-layer="1084" from-port="2" to-layer="1095" to-port="1" />
		<edge from-layer="1084" from-port="2" to-layer="1085" to-port="1" />
		<edge from-layer="1085" from-port="2" to-layer="1088" to-port="0" />
		<edge from-layer="1086" from-port="4" to-layer="1087" to-port="0" />
		<edge from-layer="1087" from-port="1" to-layer="1096" to-port="1" />
		<edge from-layer="1087" from-port="1" to-layer="1088" to-port="1" />
		<edge from-layer="1088" from-port="2" to-layer="1089" to-port="0" />
		<edge from-layer="1089" from-port="1" to-layer="1090" to-port="0" />
		<edge from-layer="1090" from-port="2" to-layer="1099" to-port="1" />
		<edge from-layer="1091" from-port="2" to-layer="1092" to-port="0" />
		<edge from-layer="1092" from-port="2" to-layer="1093" to-port="0" />
		<edge from-layer="1093" from-port="1" to-layer="1094" to-port="0" />
		<edge from-layer="1094" from-port="2" to-layer="1099" to-port="2" />
		<edge from-layer="1095" from-port="2" to-layer="1096" to-port="0" />
		<edge from-layer="1096" from-port="2" to-layer="1097" to-port="0" />
		<edge from-layer="1097" from-port="1" to-layer="1098" to-port="0" />
		<edge from-layer="1098" from-port="2" to-layer="1099" to-port="3" />
		<edge from-layer="1099" from-port="4" to-layer="1314" to-port="0" />
		<edge from-layer="1099" from-port="4" to-layer="1101" to-port="0" />
		<edge from-layer="1100" from-port="0" to-layer="1101" to-port="1" />
		<edge from-layer="1101" from-port="2" to-layer="1150" to-port="0" />
		<edge from-layer="1101" from-port="2" to-layer="1102" to-port="0" />
		<edge from-layer="1102" from-port="1" to-layer="1103" to-port="0" />
		<edge from-layer="1103" from-port="4" to-layer="1105" to-port="0" />
		<edge from-layer="1104" from-port="0" to-layer="1105" to-port="1" />
		<edge from-layer="1105" from-port="2" to-layer="1168" to-port="2" />
		<edge from-layer="1105" from-port="2" to-layer="1153" to-port="2" />
		<edge from-layer="1105" from-port="2" to-layer="1107" to-port="2" />
		<edge from-layer="1106" from-port="0" to-layer="1107" to-port="3" />
		<edge from-layer="1107" from-port="4" to-layer="1125" to-port="1" />
		<edge from-layer="1107" from-port="4" to-layer="1108" to-port="1" />
		<edge from-layer="1108" from-port="2" to-layer="1110" to-port="0" />
		<edge from-layer="1109" from-port="0" to-layer="1110" to-port="1" />
		<edge from-layer="1110" from-port="2" to-layer="1111" to-port="1" />
		<edge from-layer="1111" from-port="2" to-layer="1112" to-port="0" />
		<edge from-layer="1111" from-port="2" to-layer="1112" to-port="1" />
		<edge from-layer="1112" from-port="2" to-layer="1130" to-port="0" />
		<edge from-layer="1113" from-port="2" to-layer="1114" to-port="0" />
		<edge from-layer="1114" from-port="2" to-layer="1159" to-port="0" />
		<edge from-layer="1114" from-port="2" to-layer="1115" to-port="0" />
		<edge from-layer="1115" from-port="2" to-layer="1120" to-port="0" />
		<edge from-layer="1115" from-port="2" to-layer="1116" to-port="0" />
		<edge from-layer="1116" from-port="1" to-layer="1119" to-port="0" />
		<edge from-layer="1117" from-port="0" to-layer="1119" to-port="1" />
		<edge from-layer="1118" from-port="0" to-layer="1119" to-port="2" />
		<edge from-layer="1119" from-port="3" to-layer="1120" to-port="1" />
		<edge from-layer="1120" from-port="2" to-layer="1128" to-port="0" />
		<edge from-layer="1121" from-port="2" to-layer="1122" to-port="0" />
		<edge from-layer="1122" from-port="1" to-layer="1124" to-port="0" />
		<edge from-layer="1123" from-port="2" to-layer="1124" to-port="1" />
		<edge from-layer="1124" from-port="2" to-layer="1125" to-port="0" />
		<edge from-layer="1125" from-port="2" to-layer="1127" to-port="0" />
		<edge from-layer="1126" from-port="0" to-layer="1127" to-port="1" />
		<edge from-layer="1127" from-port="2" to-layer="1128" to-port="1" />
		<edge from-layer="1128" from-port="2" to-layer="1129" to-port="1" />
		<edge from-layer="1128" from-port="2" to-layer="1129" to-port="0" />
		<edge from-layer="1129" from-port="2" to-layer="1130" to-port="1" />
		<edge from-layer="1130" from-port="2" to-layer="1135" to-port="0" />
		<edge from-layer="1131" from-port="0" to-layer="1132" to-port="0" />
		<edge from-layer="1132" from-port="1" to-layer="1134" to-port="0" />
		<edge from-layer="1133" from-port="0" to-layer="1134" to-port="1" />
		<edge from-layer="1134" from-port="2" to-layer="1135" to-port="1" />
		<edge from-layer="1135" from-port="2" to-layer="1143" to-port="0" />
		<edge from-layer="1136" from-port="2" to-layer="1137" to-port="0" />
		<edge from-layer="1137" from-port="1" to-layer="1140" to-port="0" />
		<edge from-layer="1138" from-port="0" to-layer="1139" to-port="0" />
		<edge from-layer="1139" from-port="1" to-layer="1140" to-port="1" />
		<edge from-layer="1140" from-port="2" to-layer="1142" to-port="0" />
		<edge from-layer="1141" from-port="0" to-layer="1142" to-port="1" />
		<edge from-layer="1142" from-port="2" to-layer="1143" to-port="1" />
		<edge from-layer="1143" from-port="2" to-layer="1144" to-port="0" />
		<edge from-layer="1144" from-port="1" to-layer="1145" to-port="1" />
		<edge from-layer="1145" from-port="2" to-layer="1172" to-port="0" />
		<edge from-layer="1146" from-port="0" to-layer="1147" to-port="2" />
		<edge from-layer="1147" from-port="3" to-layer="1159" to-port="1" />
		<edge from-layer="1147" from-port="3" to-layer="1148" to-port="1" />
		<edge from-layer="1148" from-port="2" to-layer="1155" to-port="0" />
		<edge from-layer="1148" from-port="2" to-layer="1157" to-port="0" />
		<edge from-layer="1149" from-port="0" to-layer="1150" to-port="1" />
		<edge from-layer="1150" from-port="2" to-layer="1154" to-port="0" />
		<edge from-layer="1150" from-port="5" to-layer="1162" to-port="0" />
		<edge from-layer="1150" from-port="3" to-layer="1160" to-port="0" />
		<edge from-layer="1150" from-port="4" to-layer="1156" to-port="0" />
		<edge from-layer="1151" from-port="0" to-layer="1153" to-port="0" />
		<edge from-layer="1152" from-port="0" to-layer="1153" to-port="1" />
		<edge from-layer="1153" from-port="3" to-layer="1162" to-port="1" />
		<edge from-layer="1153" from-port="3" to-layer="1160" to-port="1" />
		<edge from-layer="1153" from-port="3" to-layer="1154" to-port="1" />
		<edge from-layer="1153" from-port="3" to-layer="1156" to-port="1" />
		<edge from-layer="1154" from-port="2" to-layer="1155" to-port="1" />
		<edge from-layer="1155" from-port="2" to-layer="1158" to-port="0" />
		<edge from-layer="1156" from-port="2" to-layer="1157" to-port="1" />
		<edge from-layer="1157" from-port="2" to-layer="1158" to-port="1" />
		<edge from-layer="1158" from-port="2" to-layer="1165" to-port="0" />
		<edge from-layer="1159" from-port="2" to-layer="1161" to-port="0" />
		<edge from-layer="1159" from-port="2" to-layer="1163" to-port="0" />
		<edge from-layer="1160" from-port="2" to-layer="1161" to-port="1" />
		<edge from-layer="1161" from-port="2" to-layer="1164" to-port="0" />
		<edge from-layer="1162" from-port="2" to-layer="1163" to-port="1" />
		<edge from-layer="1163" from-port="2" to-layer="1164" to-port="1" />
		<edge from-layer="1164" from-port="2" to-layer="1165" to-port="1" />
		<edge from-layer="1165" from-port="2" to-layer="1166" to-port="0" />
		<edge from-layer="1166" from-port="1" to-layer="1169" to-port="0" />
		<edge from-layer="1167" from-port="0" to-layer="1168" to-port="3" />
		<edge from-layer="1168" from-port="4" to-layer="1169" to-port="1" />
		<edge from-layer="1169" from-port="2" to-layer="1171" to-port="0" />
		<edge from-layer="1170" from-port="0" to-layer="1171" to-port="1" />
		<edge from-layer="1171" from-port="2" to-layer="1172" to-port="1" />
		<edge from-layer="1172" from-port="2" to-layer="1174" to-port="0" />
		<edge from-layer="1172" from-port="2" to-layer="1176" to-port="0" />
		<edge from-layer="1172" from-port="2" to-layer="1301" to-port="0" />
		<edge from-layer="1173" from-port="0" to-layer="1174" to-port="1" />
		<edge from-layer="1173" from-port="0" to-layer="1178" to-port="1" />
		<edge from-layer="1174" from-port="2" to-layer="1185" to-port="0" />
		<edge from-layer="1175" from-port="0" to-layer="1184" to-port="0" />
		<edge from-layer="1176" from-port="1" to-layer="1178" to-port="0" />
		<edge from-layer="1177" from-port="0" to-layer="1178" to-port="2" />
		<edge from-layer="1178" from-port="3" to-layer="1179" to-port="0" />
		<edge from-layer="1178" from-port="3" to-layer="1190" to-port="0" />
		<edge from-layer="1178" from-port="3" to-layer="1229" to-port="0" />
		<edge from-layer="1179" from-port="4" to-layer="1181" to-port="0" />
		<edge from-layer="1180" from-port="0" to-layer="1181" to-port="1" />
		<edge from-layer="1181" from-port="2" to-layer="1268" to-port="0" />
		<edge from-layer="1181" from-port="2" to-layer="1246" to-port="0" />
		<edge from-layer="1181" from-port="2" to-layer="1307" to-port="1" />
		<edge from-layer="1181" from-port="2" to-layer="1183" to-port="0" />
		<edge from-layer="1182" from-port="0" to-layer="1183" to-port="1" />
		<edge from-layer="1183" from-port="2" to-layer="1184" to-port="1" />
		<edge from-layer="1184" from-port="2" to-layer="1185" to-port="1" />
		<edge from-layer="1185" from-port="2" to-layer="1187" to-port="0" />
		<edge from-layer="1186" from-port="0" to-layer="1187" to-port="1" />
		<edge from-layer="1187" from-port="3" to-layer="1189" to-port="0" />
		<edge from-layer="1188" from-port="0" to-layer="1189" to-port="1" />
		<edge from-layer="1189" from-port="2" to-layer="1240" to-port="0" />
		<edge from-layer="1189" from-port="2" to-layer="1191" to-port="0" />
		<edge from-layer="1190" from-port="4" to-layer="1232" to-port="0" />
		<edge from-layer="1190" from-port="4" to-layer="1239" to-port="1" />
		<edge from-layer="1190" from-port="4" to-layer="1191" to-port="1" />
		<edge from-layer="1191" from-port="2" to-layer="1192" to-port="0" />
		<edge from-layer="1192" from-port="1" to-layer="1194" to-port="0" />
		<edge from-layer="1192" from-port="1" to-layer="1239" to-port="0" />
		<edge from-layer="1193" from-port="0" to-layer="1194" to-port="1" />
		<edge from-layer="1194" from-port="2" to-layer="1238" to-port="0" />
		<edge from-layer="1194" from-port="2" to-layer="1195" to-port="0" />
		<edge from-layer="1195" from-port="1" to-layer="1257" to-port="0" />
		<edge from-layer="1196" from-port="0" to-layer="1197" to-port="0" />
		<edge from-layer="1197" from-port="1" to-layer="1199" to-port="0" />
		<edge from-layer="1198" from-port="0" to-layer="1199" to-port="1" />
		<edge from-layer="1199" from-port="2" to-layer="1201" to-port="0" />
		<edge from-layer="1200" from-port="0" to-layer="1201" to-port="1" />
		<edge from-layer="1201" from-port="2" to-layer="1203" to-port="0" />
		<edge from-layer="1202" from-port="0" to-layer="1203" to-port="1" />
		<edge from-layer="1203" from-port="2" to-layer="1205" to-port="0" />
		<edge from-layer="1204" from-port="0" to-layer="1205" to-port="1" />
		<edge from-layer="1205" from-port="2" to-layer="1206" to-port="1" />
		<edge from-layer="1206" from-port="2" to-layer="1207" to-port="0" />
		<edge from-layer="1207" from-port="2" to-layer="1210" to-port="0" />
		<edge from-layer="1208" from-port="0" to-layer="1209" to-port="0" />
		<edge from-layer="1209" from-port="1" to-layer="1210" to-port="1" />
		<edge from-layer="1210" from-port="2" to-layer="1215" to-port="0" />
		<edge from-layer="1211" from-port="0" to-layer="1212" to-port="0" />
		<edge from-layer="1212" from-port="1" to-layer="1214" to-port="0" />
		<edge from-layer="1213" from-port="0" to-layer="1214" to-port="1" />
		<edge from-layer="1214" from-port="2" to-layer="1215" to-port="1" />
		<edge from-layer="1215" from-port="2" to-layer="1216" to-port="0" />
		<edge from-layer="1216" from-port="1" to-layer="1219" to-port="0" />
		<edge from-layer="1217" from-port="0" to-layer="1218" to-port="0" />
		<edge from-layer="1218" from-port="1" to-layer="1219" to-port="1" />
		<edge from-layer="1219" from-port="2" to-layer="1224" to-port="0" />
		<edge from-layer="1220" from-port="0" to-layer="1221" to-port="0" />
		<edge from-layer="1221" from-port="1" to-layer="1223" to-port="0" />
		<edge from-layer="1222" from-port="0" to-layer="1223" to-port="1" />
		<edge from-layer="1223" from-port="2" to-layer="1224" to-port="1" />
		<edge from-layer="1224" from-port="2" to-layer="1226" to-port="0" />
		<edge from-layer="1225" from-port="0" to-layer="1226" to-port="1" />
		<edge from-layer="1226" from-port="2" to-layer="1228" to-port="0" />
		<edge from-layer="1227" from-port="0" to-layer="1228" to-port="1" />
		<edge from-layer="1228" from-port="2" to-layer="1236" to-port="0" />
		<edge from-layer="1229" from-port="4" to-layer="1231" to-port="0" />
		<edge from-layer="1230" from-port="0" to-layer="1231" to-port="1" />
		<edge from-layer="1230" from-port="0" to-layer="1232" to-port="1" />
		<edge from-layer="1231" from-port="2" to-layer="1235" to-port="0" />
		<edge from-layer="1232" from-port="2" to-layer="1235" to-port="1" />
		<edge from-layer="1233" from-port="0" to-layer="1235" to-port="2" />
		<edge from-layer="1234" from-port="0" to-layer="1235" to-port="3" />
		<edge from-layer="1235" from-port="4" to-layer="1236" to-port="1" />
		<edge from-layer="1236" from-port="2" to-layer="1252" to-port="0" />
		<edge from-layer="1237" from-port="0" to-layer="1250" to-port="1" />
		<edge from-layer="1237" from-port="0" to-layer="1243" to-port="1" />
		<edge from-layer="1237" from-port="0" to-layer="1238" to-port="1" />
		<edge from-layer="1238" from-port="2" to-layer="1251" to-port="0" />
		<edge from-layer="1239" from-port="2" to-layer="1240" to-port="1" />
		<edge from-layer="1240" from-port="2" to-layer="1242" to-port="0" />
		<edge from-layer="1241" from-port="0" to-layer="1242" to-port="1" />
		<edge from-layer="1242" from-port="2" to-layer="1260" to-port="0" />
		<edge from-layer="1242" from-port="2" to-layer="1243" to-port="0" />
		<edge from-layer="1243" from-port="2" to-layer="1251" to-port="1" />
		<edge from-layer="1244" from-port="0" to-layer="1247" to-port="0" />
		<edge from-layer="1245" from-port="0" to-layer="1246" to-port="1" />
		<edge from-layer="1246" from-port="2" to-layer="1247" to-port="1" />
		<edge from-layer="1247" from-port="2" to-layer="1249" to-port="0" />
		<edge from-layer="1248" from-port="0" to-layer="1249" to-port="1" />
		<edge from-layer="1249" from-port="2" to-layer="1250" to-port="0" />
		<edge from-layer="1250" from-port="2" to-layer="1251" to-port="2" />
		<edge from-layer="1251" from-port="3" to-layer="1252" to-port="1" />
		<edge from-layer="1251" from-port="3" to-layer="1304" to-port="1" />
		<edge from-layer="1252" from-port="2" to-layer="1254" to-port="0" />
		<edge from-layer="1253" from-port="0" to-layer="1254" to-port="1" />
		<edge from-layer="1253" from-port="0" to-layer="1261" to-port="1" />
		<edge from-layer="1253" from-port="0" to-layer="1255" to-port="1" />
		<edge from-layer="1254" from-port="3" to-layer="1261" to-port="0" />
		<edge from-layer="1254" from-port="2" to-layer="1255" to-port="0" />
		<edge from-layer="1255" from-port="2" to-layer="1256" to-port="0" />
		<edge from-layer="1256" from-port="2" to-layer="1257" to-port="1" />
		<edge from-layer="1257" from-port="2" to-layer="1259" to-port="0" />
		<edge from-layer="1258" from-port="0" to-layer="1264" to-port="1" />
		<edge from-layer="1258" from-port="0" to-layer="1259" to-port="1" />
		<edge from-layer="1259" from-port="2" to-layer="1265" to-port="0" />
		<edge from-layer="1260" from-port="1" to-layer="1263" to-port="0" />
		<edge from-layer="1261" from-port="2" to-layer="1262" to-port="0" />
		<edge from-layer="1262" from-port="2" to-layer="1263" to-port="1" />
		<edge from-layer="1263" from-port="2" to-layer="1264" to-port="0" />
		<edge from-layer="1264" from-port="2" to-layer="1265" to-port="1" />
		<edge from-layer="1265" from-port="2" to-layer="1269" to-port="0" />
		<edge from-layer="1266" from-port="0" to-layer="1268" to-port="1" />
		<edge from-layer="1267" from-port="0" to-layer="1268" to-port="2" />
		<edge from-layer="1268" from-port="3" to-layer="1269" to-port="1" />
		<edge from-layer="1269" from-port="2" to-layer="1270" to-port="0" />
		<edge from-layer="1270" from-port="2" to-layer="1299" to-port="0" />
		<edge from-layer="1271" from-port="0" to-layer="1272" to-port="0" />
		<edge from-layer="1272" from-port="1" to-layer="1289" to-port="0" />
		<edge from-layer="1272" from-port="1" to-layer="1294" to-port="0" />
		<edge from-layer="1272" from-port="1" to-layer="1314" to-port="1" />
		<edge from-layer="1273" from-port="4" to-layer="1275" to-port="0" />
		<edge from-layer="1274" from-port="0" to-layer="1275" to-port="1" />
		<edge from-layer="1274" from-port="0" to-layer="1278" to-port="1" />
		<edge from-layer="1275" from-port="2" to-layer="1277" to-port="0" />
		<edge from-layer="1276" from-port="0" to-layer="1277" to-port="1" />
		<edge from-layer="1277" from-port="2" to-layer="1282" to-port="0" />
		<edge from-layer="1278" from-port="2" to-layer="1280" to-port="0" />
		<edge from-layer="1279" from-port="0" to-layer="1280" to-port="1" />
		<edge from-layer="1280" from-port="2" to-layer="1282" to-port="1" />
		<edge from-layer="1281" from-port="0" to-layer="1282" to-port="2" />
		<edge from-layer="1282" from-port="3" to-layer="1316" to-port="0" />
		<edge from-layer="1282" from-port="3" to-layer="1284" to-port="0" />
		<edge from-layer="1283" from-port="0" to-layer="1284" to-port="1" />
		<edge from-layer="1284" from-port="2" to-layer="1286" to-port="0" />
		<edge from-layer="1285" from-port="0" to-layer="1292" to-port="1" />
		<edge from-layer="1285" from-port="0" to-layer="1287" to-port="1" />
		<edge from-layer="1285" from-port="0" to-layer="1286" to-port="1" />
		<edge from-layer="1286" from-port="3" to-layer="1292" to-port="0" />
		<edge from-layer="1286" from-port="2" to-layer="1287" to-port="0" />
		<edge from-layer="1287" from-port="2" to-layer="1288" to-port="0" />
		<edge from-layer="1288" from-port="1" to-layer="1289" to-port="1" />
		<edge from-layer="1289" from-port="2" to-layer="1291" to-port="0" />
		<edge from-layer="1290" from-port="0" to-layer="1291" to-port="1" />
		<edge from-layer="1290" from-port="0" to-layer="1295" to-port="1" />
		<edge from-layer="1291" from-port="2" to-layer="1296" to-port="0" />
		<edge from-layer="1292" from-port="2" to-layer="1293" to-port="0" />
		<edge from-layer="1293" from-port="1" to-layer="1294" to-port="1" />
		<edge from-layer="1294" from-port="2" to-layer="1295" to-port="0" />
		<edge from-layer="1295" from-port="2" to-layer="1296" to-port="1" />
		<edge from-layer="1296" from-port="2" to-layer="1298" to-port="0" />
		<edge from-layer="1297" from-port="0" to-layer="1298" to-port="1" />
		<edge from-layer="1298" from-port="2" to-layer="1299" to-port="1" />
		<edge from-layer="1299" from-port="2" to-layer="1311" to-port="0" />
		<edge from-layer="1300" from-port="0" to-layer="1301" to-port="1" />
		<edge from-layer="1301" from-port="2" to-layer="1303" to-port="0" />
		<edge from-layer="1302" from-port="0" to-layer="1303" to-port="1" />
		<edge from-layer="1303" from-port="2" to-layer="1304" to-port="0" />
		<edge from-layer="1304" from-port="2" to-layer="1308" to-port="0" />
		<edge from-layer="1305" from-port="0" to-layer="1307" to-port="0" />
		<edge from-layer="1306" from-port="0" to-layer="1307" to-port="2" />
		<edge from-layer="1307" from-port="3" to-layer="1308" to-port="1" />
		<edge from-layer="1308" from-port="2" to-layer="1346" to-port="0" />
		<edge from-layer="1308" from-port="2" to-layer="1310" to-port="0" />
		<edge from-layer="1308" from-port="2" to-layer="1358" to-port="0" />
		<edge from-layer="1308" from-port="2" to-layer="1380" to-port="1" />
		<edge from-layer="1309" from-port="0" to-layer="1382" to-port="1" />
		<edge from-layer="1309" from-port="0" to-layer="1361" to-port="1" />
		<edge from-layer="1309" from-port="0" to-layer="1310" to-port="1" />
		<edge from-layer="1310" from-port="2" to-layer="1311" to-port="1" />
		<edge from-layer="1311" from-port="2" to-layer="1313" to-port="0" />
		<edge from-layer="1312" from-port="0" to-layer="1313" to-port="1" />
		<edge from-layer="1313" from-port="2" to-layer="1387" to-port="0" />
		<edge from-layer="1314" from-port="2" to-layer="1324" to-port="0" />
		<edge from-layer="1315" from-port="0" to-layer="1316" to-port="1" />
		<edge from-layer="1316" from-port="2" to-layer="1320" to-port="0" />
		<edge from-layer="1317" from-port="0" to-layer="1386" to-port="1" />
		<edge from-layer="1317" from-port="0" to-layer="1338" to-port="2" />
		<edge from-layer="1317" from-port="0" to-layer="1338" to-port="1" />
		<edge from-layer="1317" from-port="0" to-layer="1386" to-port="2" />
		<edge from-layer="1317" from-port="0" to-layer="1365" to-port="2" />
		<edge from-layer="1317" from-port="0" to-layer="1365" to-port="1" />
		<edge from-layer="1317" from-port="0" to-layer="1320" to-port="1" />
		<edge from-layer="1318" from-port="0" to-layer="1320" to-port="2" />
		<edge from-layer="1319" from-port="0" to-layer="1365" to-port="3" />
		<edge from-layer="1319" from-port="0" to-layer="1338" to-port="3" />
		<edge from-layer="1319" from-port="0" to-layer="1320" to-port="3" />
		<edge from-layer="1319" from-port="0" to-layer="1386" to-port="3" />
		<edge from-layer="1320" from-port="4" to-layer="1322" to-port="0" />
		<edge from-layer="1321" from-port="0" to-layer="1322" to-port="1" />
		<edge from-layer="1322" from-port="2" to-layer="1323" to-port="0" />
		<edge from-layer="1323" from-port="1" to-layer="1324" to-port="1" />
		<edge from-layer="1324" from-port="2" to-layer="1325" to-port="0" />
		<edge from-layer="1325" from-port="2" to-layer="1326" to-port="0" />
		<edge from-layer="1326" from-port="1" to-layer="1387" to-port="1" />
		<edge from-layer="1327" from-port="2" to-layer="1329" to-port="0" />
		<edge from-layer="1327" from-port="2" to-layer="1337" to-port="0" />
		<edge from-layer="1328" from-port="0" to-layer="1329" to-port="1" />
		<edge from-layer="1329" from-port="2" to-layer="1331" to-port="0" />
		<edge from-layer="1329" from-port="2" to-layer="1333" to-port="0" />
		<edge from-layer="1330" from-port="0" to-layer="1332" to-port="0" />
		<edge from-layer="1331" from-port="1" to-layer="1332" to-port="1" />
		<edge from-layer="1332" from-port="2" to-layer="1333" to-port="1" />
		<edge from-layer="1333" from-port="2" to-layer="1335" to-port="0" />
		<edge from-layer="1334" from-port="0" to-layer="1335" to-port="1" />
		<edge from-layer="1335" from-port="2" to-layer="1384" to-port="0" />
		<edge from-layer="1336" from-port="0" to-layer="1337" to-port="1" />
		<edge from-layer="1336" from-port="0" to-layer="1364" to-port="1" />
		<edge from-layer="1336" from-port="0" to-layer="1385" to-port="1" />
		<edge from-layer="1337" from-port="2" to-layer="1338" to-port="0" />
		<edge from-layer="1338" from-port="4" to-layer="1340" to-port="0" />
		<edge from-layer="1339" from-port="0" to-layer="1340" to-port="1" />
		<edge from-layer="1340" from-port="2" to-layer="1342" to-port="0" />
		<edge from-layer="1341" from-port="0" to-layer="1342" to-port="1" />
		<edge from-layer="1342" from-port="2" to-layer="1354" to-port="0" />
		<edge from-layer="1343" from-port="0" to-layer="1344" to-port="0" />
		<edge from-layer="1344" from-port="1" to-layer="1352" to-port="0" />
		<edge from-layer="1345" from-port="0" to-layer="1351" to-port="0" />
		<edge from-layer="1346" from-port="1" to-layer="1376" to-port="1" />
		<edge from-layer="1346" from-port="1" to-layer="1347" to-port="0" />
		<edge from-layer="1347" from-port="4" to-layer="1349" to-port="0" />
		<edge from-layer="1348" from-port="0" to-layer="1349" to-port="1" />
		<edge from-layer="1349" from-port="2" to-layer="1351" to-port="1" />
		<edge from-layer="1350" from-port="0" to-layer="1351" to-port="2" />
		<edge from-layer="1351" from-port="3" to-layer="1352" to-port="1" />
		<edge from-layer="1352" from-port="2" to-layer="1353" to-port="0" />
		<edge from-layer="1353" from-port="2" to-layer="1354" to-port="1" />
		<edge from-layer="1354" from-port="2" to-layer="1355" to-port="0" />
		<edge from-layer="1355" from-port="1" to-layer="1366" to-port="0" />
		<edge from-layer="1355" from-port="1" to-layer="1360" to-port="0" />
		<edge from-layer="1356" from-port="0" to-layer="1357" to-port="0" />
		<edge from-layer="1357" from-port="1" to-layer="1358" to-port="1" />
		<edge from-layer="1358" from-port="2" to-layer="1368" to-port="0" />
		<edge from-layer="1358" from-port="2" to-layer="1370" to-port="0" />
		<edge from-layer="1358" from-port="2" to-layer="1359" to-port="0" />
		<edge from-layer="1359" from-port="1" to-layer="1360" to-port="1" />
		<edge from-layer="1360" from-port="2" to-layer="1361" to-port="0" />
		<edge from-layer="1361" from-port="2" to-layer="1362" to-port="0" />
		<edge from-layer="1362" from-port="2" to-layer="1363" to-port="1" />
		<edge from-layer="1363" from-port="2" to-layer="1383" to-port="0" />
		<edge from-layer="1364" from-port="2" to-layer="1365" to-port="0" />
		<edge from-layer="1365" from-port="4" to-layer="1366" to-port="1" />
		<edge from-layer="1366" from-port="2" to-layer="1381" to-port="0" />
		<edge from-layer="1367" from-port="0" to-layer="1369" to-port="0" />
		<edge from-layer="1368" from-port="1" to-layer="1369" to-port="1" />
		<edge from-layer="1369" from-port="2" to-layer="1370" to-port="1" />
		<edge from-layer="1370" from-port="2" to-layer="1372" to-port="0" />
		<edge from-layer="1371" from-port="0" to-layer="1372" to-port="1" />
		<edge from-layer="1372" from-port="2" to-layer="1380" to-port="0" />
		<edge from-layer="1373" from-port="0" to-layer="1374" to-port="0" />
		<edge from-layer="1374" from-port="1" to-layer="1377" to-port="0" />
		<edge from-layer="1375" from-port="0" to-layer="1376" to-port="0" />
		<edge from-layer="1376" from-port="2" to-layer="1377" to-port="1" />
		<edge from-layer="1377" from-port="2" to-layer="1379" to-port="0" />
		<edge from-layer="1378" from-port="0" to-layer="1379" to-port="1" />
		<edge from-layer="1379" from-port="2" to-layer="1380" to-port="2" />
		<edge from-layer="1380" from-port="3" to-layer="1381" to-port="1" />
		<edge from-layer="1381" from-port="2" to-layer="1382" to-port="0" />
		<edge from-layer="1382" from-port="2" to-layer="1383" to-port="1" />
		<edge from-layer="1383" from-port="2" to-layer="1384" to-port="1" />
		<edge from-layer="1384" from-port="3" to-layer="1385" to-port="0" />
		<edge from-layer="1385" from-port="2" to-layer="1386" to-port="0" />
		<edge from-layer="1386" from-port="4" to-layer="1387" to-port="2" />
		<edge from-layer="1387" from-port="3" to-layer="1388" to-port="0" />
	</edges>
	<rt_info>
		<Runtime_version value="2023.2.0-13089-cfd42bd2cb0-HEAD" />
		<conversion_parameters>
			<input_model value="DIR/1.tflite" />
			<is_python_object value="False" />
		</conversion_parameters>
	</rt_info>
</net>
